Full structure of model 'Octo':
OctoModelPt(
  (module): OctoModulePt(
    (octo_transformer): OctoTransformerPt(
      (task_tokenizers): ModuleDict(
        (language): LanguageTokenizerPt(
          (hf_model): T5EncoderModel(
            (shared): Embedding(32128, 768)
            (encoder): T5Stack(
              (embed_tokens): Embedding(32128, 768)
              (block): ModuleList(
                (0): T5Block(
                  (layer): ModuleList(
                    (0): T5LayerSelfAttention(
                      (SelfAttention): T5Attention(
                        (q): Linear(in_features=768, out_features=768, bias=False)
                        (k): Linear(in_features=768, out_features=768, bias=False)
                        (v): Linear(in_features=768, out_features=768, bias=False)
                        (o): Linear(in_features=768, out_features=768, bias=False)
                        (relative_attention_bias): Embedding(32, 12)
                      )
                      (layer_norm): T5LayerNorm()
                      (dropout): Dropout(p=0.1, inplace=False)
                    )
                    (1): T5LayerFF(
                      (DenseReluDense): T5DenseActDense(
                        (wi): Linear(in_features=768, out_features=3072, bias=False)
                        (wo): Linear(in_features=3072, out_features=768, bias=False)
                        (dropout): Dropout(p=0.1, inplace=False)
                        (act): ReLU()
                      )
                      (layer_norm): T5LayerNorm()
                      (dropout): Dropout(p=0.1, inplace=False)
                    )
                  )
                )
                (1-11): 11 x T5Block(
                  (layer): ModuleList(
                    (0): T5LayerSelfAttention(
                      (SelfAttention): T5Attention(
                        (q): Linear(in_features=768, out_features=768, bias=False)
                        (k): Linear(in_features=768, out_features=768, bias=False)
                        (v): Linear(in_features=768, out_features=768, bias=False)
                        (o): Linear(in_features=768, out_features=768, bias=False)
                      )
                      (layer_norm): T5LayerNorm()
                      (dropout): Dropout(p=0.1, inplace=False)
                    )
                    (1): T5LayerFF(
                      (DenseReluDense): T5DenseActDense(
                        (wi): Linear(in_features=768, out_features=3072, bias=False)
                        (wo): Linear(in_features=3072, out_features=768, bias=False)
                        (dropout): Dropout(p=0.1, inplace=False)
                        (act): ReLU()
                      )
                      (layer_norm): T5LayerNorm()
                      (dropout): Dropout(p=0.1, inplace=False)
                    )
                  )
                )
              )
              (final_layer_norm): T5LayerNorm()
…
