: PrismaticVLM(
  (vision_backbone): DinoSigLIPViTBackbone(
    (dino_featurizer): VisionTransformer(
      (patch_embed): PatchEmbed(
        (proj): Conv2d(3, 1024, kernel_size=(14, 14), stride=(14, 14))
        (norm): Identity()
      )
      (pos_drop): Dropout(p=0.0, inplace=False)
      (patch_drop): Identity()
      (norm_pre): Identity()
      (blocks): Sequential(
        (0): Block(
          (norm1): LayerNorm((1024,), eps=1e-06, elementwise_affine=True)
          (attn): Attention(
            (qkv): Linear(in_features=1024, out_features=3072, bias=True)
            (q_norm): Identity()
            (k_norm): Identity()
            (attn_drop): Dropout(p=0.0, inplace=False)
            (proj): Linear(in_features=1024, out_features=1024, bias=True)
            (proj_drop): Dropout(p=0.0, inplace=False)
          )
          (ls1): LayerScale()
          (drop_path1): Identity()
          (norm2): LayerNorm((1024,), eps=1e-06, elementwise_affine=True)
          (mlp): Mlp(
            (fc1): Linear(in_features=1024, out_features=4096, bias=True)
            (act): GELU(approximate='none')
            (drop1): Dropout(p=0.0, inplace=False)
            (norm): Identity()
            (fc2): Linear(in_features=4096, out_features=1024, bias=True)
            (drop2): Dropout(p=0.0, inplace=False)
          )
          (ls2): LayerScale()
          (drop_path2): Identity()
        )
        (1): Block(
          (norm1): LayerNorm((1024,), eps=1e-06, elementwise_affine=True)
          (attn): Attention(
            (qkv): Linear(in_features=1024, out_features=3072, bias=True)
            (q_norm): Identity()
            (k_norm): Identity()
            (attn_drop): Dropout(p=0.0, inplace=False)
            (proj): Linear(in_features=1024, out_features=1024, bias=True)
            (proj_drop): Dropout(p=0.0, inplace=False)
          )
          (ls1): LayerScale()
          (drop_path1): Identity()
          (norm2): LayerNorm((1024,), eps=1e-06, elementwise_affine=True)
          (mlp): Mlp(
            (fc1): Linear(in_features=1024, out_features=4096, bias=True)
            (act): GELU(approximate='none')
            (drop1): Dropout(p=0.0, inplace=False)
            (norm): Identity()
            (fc2): Linear(in_features=4096, out_features=1024, bias=True)
            (drop2): Dropout(p=0.0, inplace=False)
          )
          (ls2): LayerScale()
          (drop_path2): Identity()
        )
        (2): Block(
          (norm1): LayerNorm((1024,), eps=1e-06, elementwise_affine=True)
          (attn): Attention(
            (qkv): Linear(in_features=1024, out_features=3072, bias=True)
            (q_norm): Identity()
            (k_norm): Identity()
            (attn_drop): Dropout(p=0.0, inplace=False)
            (proj): Linear(in_features=1024, out_features=1024, bias=True)
            (proj_drop): Dropout(p=0.0, inplace=False)
          )
          (ls1): LayerScale()
          (drop_path1): Identity()
          (norm2): LayerNorm((1024,), eps=1e-06, elementwise_affine=True)
          (mlp): Mlp(
            (fc1): Linear(in_features=1024, out_features=4096, bias=True)
            (act): GELU(approximate='none')
            (drop1): Dropout(p=0.0, inplace=False)
            (norm): Identity()
            (fc2): Linear(in_features=4096, out_features=1024, bias=True)
            (drop2): Dropout(p=0.0, inplace=False)
          )
          (ls2): LayerScale()
          (drop_path2): Identity()
        )
        (3): Block(
          (norm1): LayerNorm((1024,), eps=1e-06, elementwise_affine=True)
          (attn): Attention(
            (qkv): Linear(in_features=1024, out_features=3072, bias=True)
            (q_norm): Identity()
            (k_norm): Identity()
            (attn_drop): Dropout(p=0.0, inplace=False)
            (proj): Linear(in_features=1024, out_features=1024, bias=True)
            (proj_drop): Dropout(p=0.0, inplace=False)
          )
          (ls1): LayerScale()
          (drop_path1): Identity()
          (norm2): LayerNorm((1024,), eps=1e-06, elementwise_affine=True)
          (mlp): Mlp(
            (fc1): Linear(in_features=1024, out_features=4096, bias=True)
            (act): GELU(approximate='none')
            (drop1): Dropout(p=0.0, inplace=False)
            (norm): Identity()
            (fc2): Linear(in_features=4096, out_features=1024, bias=True)
            (drop2): Dropout(p=0.0, inplace=False)
          )
          (ls2): LayerScale()
          (drop_path2): Identity()
        )
        (4): Block(
          (norm1): LayerNorm((1024,), eps=1e-06, elementwise_affine=True)
          (attn): Attention(
            (qkv): Linear(in_features=1024, out_features=3072, bias=True)
            (q_norm): Identity()
            (k_norm): Identity()
            (attn_drop): Dropout(p=0.0, inplace=False)
            (proj): Linear(in_features=1024, out_features=1024, bias=True)
            (proj_drop): Dropout(p=0.0, inplace=False)
          )
          (ls1): LayerScale()
          (drop_path1): Identity()
          (norm2): LayerNorm((1024,), eps=1e-06, elementwise_affine=True)
          (mlp): Mlp(
            (fc1): Linear(in_features=1024, out_features=4096, bias=True)
            (act): GELU(approximate='none')
            (drop1): Dropout(p=0.0, inplace=False)
            (norm): Identity()
            (fc2): Linear(in_features=4096, out_features=1024, bias=True)
            (drop2): Dropout(p=0.0, inplace=False)
          )
          (ls2): LayerScale()
          (drop_path2): Identity()
        )
        (5): Block(
          (norm1): LayerNorm((1024,), eps=1e-06, elementwise_affine=True)
          (attn): Attention(
            (qkv): Linear(in_features=1024, out_features=3072, bias=True)
            (q_norm): Identity()
            (k_norm): Identity()
            (attn_drop): Dropout(p=0.0, inplace=False)
            (proj): Linear(in_features=1024, out_features=1024, bias=True)
            (proj_drop): Dropout(p=0.0, inplace=False)
          )
          (ls1): LayerScale()
          (drop_path1): Identity()
          (norm2): LayerNorm((1024,), eps=1e-06, elementwise_affine=True)
          (mlp): Mlp(
            (fc1): Linear(in_features=1024, out_features=4096, bias=True)
            (act): GELU(approximate='none')
            (drop1): Dropout(p=0.0, inplace=False)
            (norm): Identity()
            (fc2): Linear(in_features=4096, out_features=1024, bias=True)
            (drop2): Dropout(p=0.0, inplace=False)
          )
          (ls2): LayerScale()
          (drop_path2): Identity()
        )
        (6): Block(
          (norm1): LayerNorm((1024,), eps=1e-06, elementwise_affine=True)
          (attn): Attention(
            (qkv): Linear(in_features=1024, out_features=3072, bias=True)
            (q_norm): Identity()
            (k_norm): Identity()
            (attn_drop): Dropout(p=0.0, inplace=False)
            (proj): Linear(in_features=1024, out_features=1024, bias=True)
            (proj_drop): Dropout(p=0.0, inplace=False)
          )
          (ls1): LayerScale()
          (drop_path1): Identity()
          (norm2): LayerNorm((1024,), eps=1e-06, elementwise_affine=True)
          (mlp): Mlp(
            (fc1): Linear(in_features=1024, out_features=4096, bias=True)
            (act): GELU(approximate='none')
            (drop1): Dropout(p=0.0, inplace=False)
            (norm): Identity()
            (fc2): Linear(in_features=4096, out_features=1024, bias=True)
            (drop2): Dropout(p=0.0, inplace=False)
          )
          (ls2): LayerScale()
          (drop_path2): Identity()
        )
        (7): Block(
          (norm1): LayerNorm((1024,), eps=1e-06, elementwise_affine=True)
          (attn): Attention(
            (qkv): Linear(in_features=1024, out_features=3072, bias=True)
            (q_norm): Identity()
            (k_norm): Identity()
            (attn_drop): Dropout(p=0.0, inplace=False)
            (proj): Linear(in_features=1024, out_features=1024, bias=True)
            (proj_drop): Dropout(p=0.0, inplace=False)
          )
          (ls1): LayerScale()
          (drop_path1): Identity()
          (norm2): LayerNorm((1024,), eps=1e-06, elementwise_affine=True)
          (mlp): Mlp(
            (fc1): Linear(in_features=1024, out_features=4096, bias=True)
            (act): GELU(approximate='none')
            (drop1): Dropout(p=0.0, inplace=False)
            (norm): Identity()
            (fc2): Linear(in_features=4096, out_features=1024, bias=True)
            (drop2): Dropout(p=0.0, inplace=False)
          )
          (ls2): LayerScale()
          (drop_path2): Identity()
        )
        (8): Block(
          (norm1): LayerNorm((1024,), eps=1e-06, elementwise_affine=True)
          (attn): Attention(
            (qkv): Linear(in_features=1024, out_features=3072, bias=True)
            (q_norm): Identity()
            (k_norm): Identity()
            (attn_drop): Dropout(p=0.0, inplace=False)
            (proj): Linear(in_features=1024, out_features=1024, bias=True)
            (proj_drop): Dropout(p=0.0, inplace=False)
          )
          (ls1): LayerScale()
          (drop_path1): Identity()
          (norm2): LayerNorm((1024,), eps=1e-06, elementwise_affine=True)
          (mlp): Mlp(
            (fc1): Linear(in_features=1024, out_features=4096, bias=True)
            (act): GELU(approximate='none')
            (drop1): Dropout(p=0.0, inplace=False)
            (norm): Identity()
            (fc2): Linear(in_features=4096, out_features=1024, bias=True)
            (drop2): Dropout(p=0.0, inplace=False)
          )
          (ls2): LayerScale()
          (drop_path2): Identity()
        )
        (9): Block(
          (norm1): LayerNorm((1024,), eps=1e-06, elementwise_affine=True)
          (attn): Attention(
            (qkv): Linear(in_features=1024, out_features=3072, bias=True)
            (q_norm): Identity()
            (k_norm): Identity()
            (attn_drop): Dropout(p=0.0, inplace=False)
            (proj): Linear(in_features=1024, out_features=1024, bias=True)
            (proj_drop): Dropout(p=0.0, inplace=False)
          )
          (ls1): LayerScale()
          (drop_path1): Identity()
          (norm2): LayerNorm((1024,), eps=1e-06, elementwise_affine=True)
          (mlp): Mlp(
            (fc1): Linear(in_features=1024, out_features=4096, bias=True)
            (act): GELU(approximate='none')
            (drop1): Dropout(p=0.0, inplace=False)
            (norm): Identity()
            (fc2): Linear(in_features=4096, out_features=1024, bias=True)
            (drop2): Dropout(p=0.0, inplace=False)
          )
          (ls2): LayerScale()
          (drop_path2): Identity()
        )
        (10): Block(
          (norm1): LayerNorm((1024,), eps=1e-06, elementwise_affine=True)
          (attn): Attention(
            (qkv): Linear(in_features=1024, out_features=3072, bias=True)
            (q_norm): Identity()
            (k_norm): Identity()
            (attn_drop): Dropout(p=0.0, inplace=False)
            (proj): Linear(in_features=1024, out_features=1024, bias=True)
            (proj_drop): Dropout(p=0.0, inplace=False)
          )
          (ls1): LayerScale()
          (drop_path1): Identity()
          (norm2): LayerNorm((1024,), eps=1e-06, elementwise_affine=True)
          (mlp): Mlp(
            (fc1): Linear(in_features=1024, out_features=4096, bias=True)
            (act): GELU(approximate='none')
            (drop1): Dropout(p=0.0, inplace=False)
            (norm): Identity()
            (fc2): Linear(in_features=4096, out_features=1024, bias=True)
            (drop2): Dropout(p=0.0, inplace=False)
          )
          (ls2): LayerScale()
          (drop_path2): Identity()
        )
        (11): Block(
          (norm1): LayerNorm((1024,), eps=1e-06, elementwise_affine=True)
          (attn): Attention(
            (qkv): Linear(in_features=1024, out_features=3072, bias=True)
            (q_norm): Identity()
            (k_norm): Identity()
            (attn_drop): Dropout(p=0.0, inplace=False)
            (proj): Linear(in_features=1024, out_features=1024, bias=True)
            (proj_drop): Dropout(p=0.0, inplace=False)
          )
          (ls1): LayerScale()
          (drop_path1): Identity()
          (norm2): LayerNorm((1024,), eps=1e-06, elementwise_affine=True)
          (mlp): Mlp(
            (fc1): Linear(in_features=1024, out_features=4096, bias=True)
            (act): GELU(approximate='none')
            (drop1): Dropout(p=0.0, inplace=False)
            (norm): Identity()
            (fc2): Linear(in_features=4096, out_features=1024, bias=True)
            (drop2): Dropout(p=0.0, inplace=False)
          )
          (ls2): LayerScale()
          (drop_path2): Identity()
        )
        (12): Block(
          (norm1): LayerNorm((1024,), eps=1e-06, elementwise_affine=True)
          (attn): Attention(
            (qkv): Linear(in_features=1024, out_features=3072, bias=True)
            (q_norm): Identity()
            (k_norm): Identity()
            (attn_drop): Dropout(p=0.0, inplace=False)
            (proj): Linear(in_features=1024, out_features=1024, bias=True)
            (proj_drop): Dropout(p=0.0, inplace=False)
          )
          (ls1): LayerScale()
          (drop_path1): Identity()
          (norm2): LayerNorm((1024,), eps=1e-06, elementwise_affine=True)
          (mlp): Mlp(
            (fc1): Linear(in_features=1024, out_features=4096, bias=True)
            (act): GELU(approximate='none')
            (drop1): Dropout(p=0.0, inplace=False)
            (norm): Identity()
            (fc2): Linear(in_features=4096, out_features=1024, bias=True)
            (drop2): Dropout(p=0.0, inplace=False)
          )
          (ls2): LayerScale()
          (drop_path2): Identity()
        )
        (13): Block(
          (norm1): LayerNorm((1024,), eps=1e-06, elementwise_affine=True)
          (attn): Attention(
            (qkv): Linear(in_features=1024, out_features=3072, bias=True)
            (q_norm): Identity()
            (k_norm): Identity()
            (attn_drop): Dropout(p=0.0, inplace=False)
            (proj): Linear(in_features=1024, out_features=1024, bias=True)
            (proj_drop): Dropout(p=0.0, inplace=False)
          )
          (ls1): LayerScale()
          (drop_path1): Identity()
          (norm2): LayerNorm((1024,), eps=1e-06, elementwise_affine=True)
          (mlp): Mlp(
            (fc1): Linear(in_features=1024, out_features=4096, bias=True)
            (act): GELU(approximate='none')
            (drop1): Dropout(p=0.0, inplace=False)
            (norm): Identity()
            (fc2): Linear(in_features=4096, out_features=1024, bias=True)
            (drop2): Dropout(p=0.0, inplace=False)
          )
          (ls2): LayerScale()
          (drop_path2): Identity()
        )
        (14): Block(
          (norm1): LayerNorm((1024,), eps=1e-06, elementwise_affine=True)
          (attn): Attention(
            (qkv): Linear(in_features=1024, out_features=3072, bias=True)
            (q_norm): Identity()
            (k_norm): Identity()
            (attn_drop): Dropout(p=0.0, inplace=False)
            (proj): Linear(in_features=1024, out_features=1024, bias=True)
            (proj_drop): Dropout(p=0.0, inplace=False)
          )
          (ls1): LayerScale()
          (drop_path1): Identity()
          (norm2): LayerNorm((1024,), eps=1e-06, elementwise_affine=True)
          (mlp): Mlp(
            (fc1): Linear(in_features=1024, out_features=4096, bias=True)
            (act): GELU(approximate='none')
            (drop1): Dropout(p=0.0, inplace=False)
            (norm): Identity()
            (fc2): Linear(in_features=4096, out_features=1024, bias=True)
            (drop2): Dropout(p=0.0, inplace=False)
          )
          (ls2): LayerScale()
          (drop_path2): Identity()
        )
        (15): Block(
          (norm1): LayerNorm((1024,), eps=1e-06, elementwise_affine=True)
          (attn): Attention(
            (qkv): Linear(in_features=1024, out_features=3072, bias=True)
            (q_norm): Identity()
            (k_norm): Identity()
            (attn_drop): Dropout(p=0.0, inplace=False)
            (proj): Linear(in_features=1024, out_features=1024, bias=True)
            (proj_drop): Dropout(p=0.0, inplace=False)
          )
          (ls1): LayerScale()
          (drop_path1): Identity()
          (norm2): LayerNorm((1024,), eps=1e-06, elementwise_affine=True)
          (mlp): Mlp(
            (fc1): Linear(in_features=1024, out_features=4096, bias=True)
            (act): GELU(approximate='none')
            (drop1): Dropout(p=0.0, inplace=False)
            (norm): Identity()
            (fc2): Linear(in_features=4096, out_features=1024, bias=True)
            (drop2): Dropout(p=0.0, inplace=False)
          )
          (ls2): LayerScale()
          (drop_path2): Identity()
        )
        (16): Block(
          (norm1): LayerNorm((1024,), eps=1e-06, elementwise_affine=True)
          (attn): Attention(
            (qkv): Linear(in_features=1024, out_features=3072, bias=True)
            (q_norm): Identity()
            (k_norm): Identity()
            (attn_drop): Dropout(p=0.0, inplace=False)
            (proj): Linear(in_features=1024, out_features=1024, bias=True)
            (proj_drop): Dropout(p=0.0, inplace=False)
          )
          (ls1): LayerScale()
          (drop_path1): Identity()
          (norm2): LayerNorm((1024,), eps=1e-06, elementwise_affine=True)
          (mlp): Mlp(
            (fc1): Linear(in_features=1024, out_features=4096, bias=True)
            (act): GELU(approximate='none')
            (drop1): Dropout(p=0.0, inplace=False)
            (norm): Identity()
            (fc2): Linear(in_features=4096, out_features=1024, bias=True)
            (drop2): Dropout(p=0.0, inplace=False)
          )
          (ls2): LayerScale()
          (drop_path2): Identity()
        )
        (17): Block(
          (norm1): LayerNorm((1024,), eps=1e-06, elementwise_affine=True)
          (attn): Attention(
            (qkv): Linear(in_features=1024, out_features=3072, bias=True)
            (q_norm): Identity()
            (k_norm): Identity()
            (attn_drop): Dropout(p=0.0, inplace=False)
            (proj): Linear(in_features=1024, out_features=1024, bias=True)
            (proj_drop): Dropout(p=0.0, inplace=False)
          )
          (ls1): LayerScale()
          (drop_path1): Identity()
          (norm2): LayerNorm((1024,), eps=1e-06, elementwise_affine=True)
          (mlp): Mlp(
            (fc1): Linear(in_features=1024, out_features=4096, bias=True)
            (act): GELU(approximate='none')
            (drop1): Dropout(p=0.0, inplace=False)
            (norm): Identity()
            (fc2): Linear(in_features=4096, out_features=1024, bias=True)
            (drop2): Dropout(p=0.0, inplace=False)
          )
          (ls2): LayerScale()
          (drop_path2): Identity()
        )
        (18): Block(
          (norm1): LayerNorm((1024,), eps=1e-06, elementwise_affine=True)
          (attn): Attention(
            (qkv): Linear(in_features=1024, out_features=3072, bias=True)
            (q_norm): Identity()
            (k_norm): Identity()
            (attn_drop): Dropout(p=0.0, inplace=False)
            (proj): Linear(in_features=1024, out_features=1024, bias=True)
            (proj_drop): Dropout(p=0.0, inplace=False)
          )
          (ls1): LayerScale()
          (drop_path1): Identity()
          (norm2): LayerNorm((1024,), eps=1e-06, elementwise_affine=True)
          (mlp): Mlp(
            (fc1): Linear(in_features=1024, out_features=4096, bias=True)
            (act): GELU(approximate='none')
            (drop1): Dropout(p=0.0, inplace=False)
            (norm): Identity()
            (fc2): Linear(in_features=4096, out_features=1024, bias=True)
            (drop2): Dropout(p=0.0, inplace=False)
          )
          (ls2): LayerScale()
          (drop_path2): Identity()
        )
        (19): Block(
          (norm1): LayerNorm((1024,), eps=1e-06, elementwise_affine=True)
          (attn): Attention(
            (qkv): Linear(in_features=1024, out_features=3072, bias=True)
            (q_norm): Identity()
            (k_norm): Identity()
            (attn_drop): Dropout(p=0.0, inplace=False)
            (proj): Linear(in_features=1024, out_features=1024, bias=True)
            (proj_drop): Dropout(p=0.0, inplace=False)
          )
          (ls1): LayerScale()
          (drop_path1): Identity()
          (norm2): LayerNorm((1024,), eps=1e-06, elementwise_affine=True)
          (mlp): Mlp(
            (fc1): Linear(in_features=1024, out_features=4096, bias=True)
            (act): GELU(approximate='none')
            (drop1): Dropout(p=0.0, inplace=False)
            (norm): Identity()
            (fc2): Linear(in_features=4096, out_features=1024, bias=True)
            (drop2): Dropout(p=0.0, inplace=False)
          )
          (ls2): LayerScale()
          (drop_path2): Identity()
        )
        (20): Block(
          (norm1): LayerNorm((1024,), eps=1e-06, elementwise_affine=True)
          (attn): Attention(
            (qkv): Linear(in_features=1024, out_features=3072, bias=True)
            (q_norm): Identity()
            (k_norm): Identity()
            (attn_drop): Dropout(p=0.0, inplace=False)
            (proj): Linear(in_features=1024, out_features=1024, bias=True)
            (proj_drop): Dropout(p=0.0, inplace=False)
          )
          (ls1): LayerScale()
          (drop_path1): Identity()
          (norm2): LayerNorm((1024,), eps=1e-06, elementwise_affine=True)
          (mlp): Mlp(
            (fc1): Linear(in_features=1024, out_features=4096, bias=True)
            (act): GELU(approximate='none')
            (drop1): Dropout(p=0.0, inplace=False)
            (norm): Identity()
            (fc2): Linear(in_features=4096, out_features=1024, bias=True)
            (drop2): Dropout(p=0.0, inplace=False)
          )
          (ls2): LayerScale()
          (drop_path2): Identity()
        )
        (21): Block(
          (norm1): LayerNorm((1024,), eps=1e-06, elementwise_affine=True)
          (attn): Attention(
            (qkv): Linear(in_features=1024, out_features=3072, bias=True)
            (q_norm): Identity()
            (k_norm): Identity()
            (attn_drop): Dropout(p=0.0, inplace=False)
            (proj): Linear(in_features=1024, out_features=1024, bias=True)
            (proj_drop): Dropout(p=0.0, inplace=False)
          )
          (ls1): LayerScale()
          (drop_path1): Identity()
          (norm2): LayerNorm((1024,), eps=1e-06, elementwise_affine=True)
          (mlp): Mlp(
            (fc1): Linear(in_features=1024, out_features=4096, bias=True)
            (act): GELU(approximate='none')
            (drop1): Dropout(p=0.0, inplace=False)
            (norm): Identity()
            (fc2): Linear(in_features=4096, out_features=1024, bias=True)
            (drop2): Dropout(p=0.0, inplace=False)
          )
          (ls2): LayerScale()
          (drop_path2): Identity()
        )
        (22): Block(
          (norm1): LayerNorm((1024,), eps=1e-06, elementwise_affine=True)
          (attn): Attention(
            (qkv): Linear(in_features=1024, out_features=3072, bias=True)
            (q_norm): Identity()
            (k_norm): Identity()
            (attn_drop): Dropout(p=0.0, inplace=False)
            (proj): Linear(in_features=1024, out_features=1024, bias=True)
            (proj_drop): Dropout(p=0.0, inplace=False)
          )
          (ls1): LayerScale()
          (drop_path1): Identity()
          (norm2): LayerNorm((1024,), eps=1e-06, elementwise_affine=True)
          (mlp): Mlp(
            (fc1): Linear(in_features=1024, out_features=4096, bias=True)
            (act): GELU(approximate='none')
            (drop1): Dropout(p=0.0, inplace=False)
            (norm): Identity()
            (fc2): Linear(in_features=4096, out_features=1024, bias=True)
            (drop2): Dropout(p=0.0, inplace=False)
          )
          (ls2): LayerScale()
          (drop_path2): Identity()
        )
        (23): Block(
          (norm1): LayerNorm((1024,), eps=1e-06, elementwise_affine=True)
          (attn): Attention(
            (qkv): Linear(in_features=1024, out_features=3072, bias=True)
            (q_norm): Identity()
            (k_norm): Identity()
            (attn_drop): Dropout(p=0.0, inplace=False)
            (proj): Linear(in_features=1024, out_features=1024, bias=True)
            (proj_drop): Dropout(p=0.0, inplace=False)
          )
          (ls1): LayerScale()
          (drop_path1): Identity()
          (norm2): LayerNorm((1024,), eps=1e-06, elementwise_affine=True)
          (mlp): Mlp(
            (fc1): Linear(in_features=1024, out_features=4096, bias=True)
            (act): GELU(approximate='none')
            (drop1): Dropout(p=0.0, inplace=False)
            (norm): Identity()
            (fc2): Linear(in_features=4096, out_features=1024, bias=True)
            (drop2): Dropout(p=0.0, inplace=False)
          )
          (ls2): LayerScale()
          (drop_path2): Identity()
        )
      )
      (norm): LayerNorm((1024,), eps=1e-06, elementwise_affine=True)
      (fc_norm): Identity()
      (head_drop): Dropout(p=0.0, inplace=False)
      (head): Identity()
    )
    (siglip_featurizer): VisionTransformer(
      (patch_embed): PatchEmbed(
        (proj): Conv2d(3, 1152, kernel_size=(14, 14), stride=(14, 14))
        (norm): Identity()
      )
      (pos_drop): Dropout(p=0.0, inplace=False)
      (patch_drop): Identity()
      (norm_pre): Identity()
      (blocks): Sequential(
        (0): Block(
          (norm1): LayerNorm((1152,), eps=1e-06, elementwise_affine=True)
          (attn): Attention(
            (qkv): Linear(in_features=1152, out_features=3456, bias=True)
            (q_norm): Identity()
            (k_norm): Identity()
            (attn_drop): Dropout(p=0.0, inplace=False)
            (proj): Linear(in_features=1152, out_features=1152, bias=True)
            (proj_drop): Dropout(p=0.0, inplace=False)
          )
          (ls1): Identity()
          (drop_path1): Identity()
          (norm2): LayerNorm((1152,), eps=1e-06, elementwise_affine=True)
          (mlp): Mlp(
            (fc1): Linear(in_features=1152, out_features=4304, bias=True)
            (act): GELU(approximate='none')
            (drop1): Dropout(p=0.0, inplace=False)
            (norm): Identity()
            (fc2): Linear(in_features=4304, out_features=1152, bias=True)
            (drop2): Dropout(p=0.0, inplace=False)
          )
          (ls2): Identity()
          (drop_path2): Identity()
        )
        (1): Block(
          (norm1): LayerNorm((1152,), eps=1e-06, elementwise_affine=True)
          (attn): Attention(
            (qkv): Linear(in_features=1152, out_features=3456, bias=True)
            (q_norm): Identity()
            (k_norm): Identity()
            (attn_drop): Dropout(p=0.0, inplace=False)
            (proj): Linear(in_features=1152, out_features=1152, bias=True)
            (proj_drop): Dropout(p=0.0, inplace=False)
          )
          (ls1): Identity()
          (drop_path1): Identity()
          (norm2): LayerNorm((1152,), eps=1e-06, elementwise_affine=True)
          (mlp): Mlp(
            (fc1): Linear(in_features=1152, out_features=4304, bias=True)
            (act): GELU(approximate='none')
            (drop1): Dropout(p=0.0, inplace=False)
            (norm): Identity()
            (fc2): Linear(in_features=4304, out_features=1152, bias=True)
            (drop2): Dropout(p=0.0, inplace=False)
          )
          (ls2): Identity()
          (drop_path2): Identity()
        )
        (2): Block(
          (norm1): LayerNorm((1152,), eps=1e-06, elementwise_affine=True)
          (attn): Attention(
            (qkv): Linear(in_features=1152, out_features=3456, bias=True)
            (q_norm): Identity()
            (k_norm): Identity()
            (attn_drop): Dropout(p=0.0, inplace=False)
            (proj): Linear(in_features=1152, out_features=1152, bias=True)
            (proj_drop): Dropout(p=0.0, inplace=False)
          )
          (ls1): Identity()
          (drop_path1): Identity()
          (norm2): LayerNorm((1152,), eps=1e-06, elementwise_affine=True)
          (mlp): Mlp(
            (fc1): Linear(in_features=1152, out_features=4304, bias=True)
            (act): GELU(approximate='none')
            (drop1): Dropout(p=0.0, inplace=False)
            (norm): Identity()
            (fc2): Linear(in_features=4304, out_features=1152, bias=True)
            (drop2): Dropout(p=0.0, inplace=False)
          )
          (ls2): Identity()
          (drop_path2): Identity()
        )
        (3): Block(
          (norm1): LayerNorm((1152,), eps=1e-06, elementwise_affine=True)
          (attn): Attention(
            (qkv): Linear(in_features=1152, out_features=3456, bias=True)
            (q_norm): Identity()
            (k_norm): Identity()
            (attn_drop): Dropout(p=0.0, inplace=False)
            (proj): Linear(in_features=1152, out_features=1152, bias=True)
            (proj_drop): Dropout(p=0.0, inplace=False)
          )
          (ls1): Identity()
          (drop_path1): Identity()
          (norm2): LayerNorm((1152,), eps=1e-06, elementwise_affine=True)
          (mlp): Mlp(
            (fc1): Linear(in_features=1152, out_features=4304, bias=True)
            (act): GELU(approximate='none')
            (drop1): Dropout(p=0.0, inplace=False)
            (norm): Identity()
            (fc2): Linear(in_features=4304, out_features=1152, bias=True)
            (drop2): Dropout(p=0.0, inplace=False)
          )
          (ls2): Identity()
          (drop_path2): Identity()
        )
        (4): Block(
          (norm1): LayerNorm((1152,), eps=1e-06, elementwise_affine=True)
          (attn): Attention(
            (qkv): Linear(in_features=1152, out_features=3456, bias=True)
            (q_norm): Identity()
            (k_norm): Identity()
            (attn_drop): Dropout(p=0.0, inplace=False)
            (proj): Linear(in_features=1152, out_features=1152, bias=True)
            (proj_drop): Dropout(p=0.0, inplace=False)
          )
          (ls1): Identity()
          (drop_path1): Identity()
          (norm2): LayerNorm((1152,), eps=1e-06, elementwise_affine=True)
          (mlp): Mlp(
            (fc1): Linear(in_features=1152, out_features=4304, bias=True)
            (act): GELU(approximate='none')
            (drop1): Dropout(p=0.0, inplace=False)
            (norm): Identity()
            (fc2): Linear(in_features=4304, out_features=1152, bias=True)
            (drop2): Dropout(p=0.0, inplace=False)
          )
          (ls2): Identity()
          (drop_path2): Identity()
        )
        (5): Block(
          (norm1): LayerNorm((1152,), eps=1e-06, elementwise_affine=True)
          (attn): Attention(
            (qkv): Linear(in_features=1152, out_features=3456, bias=True)
            (q_norm): Identity()
            (k_norm): Identity()
            (attn_drop): Dropout(p=0.0, inplace=False)
            (proj): Linear(in_features=1152, out_features=1152, bias=True)
            (proj_drop): Dropout(p=0.0, inplace=False)
          )
          (ls1): Identity()
          (drop_path1): Identity()
          (norm2): LayerNorm((1152,), eps=1e-06, elementwise_affine=True)
          (mlp): Mlp(
            (fc1): Linear(in_features=1152, out_features=4304, bias=True)
            (act): GELU(approximate='none')
            (drop1): Dropout(p=0.0, inplace=False)
            (norm): Identity()
            (fc2): Linear(in_features=4304, out_features=1152, bias=True)
            (drop2): Dropout(p=0.0, inplace=False)
          )
          (ls2): Identity()
          (drop_path2): Identity()
        )
        (6): Block(
          (norm1): LayerNorm((1152,), eps=1e-06, elementwise_affine=True)
          (attn): Attention(
            (qkv): Linear(in_features=1152, out_features=3456, bias=True)
            (q_norm): Identity()
            (k_norm): Identity()
            (attn_drop): Dropout(p=0.0, inplace=False)
            (proj): Linear(in_features=1152, out_features=1152, bias=True)
            (proj_drop): Dropout(p=0.0, inplace=False)
          )
          (ls1): Identity()
          (drop_path1): Identity()
          (norm2): LayerNorm((1152,), eps=1e-06, elementwise_affine=True)
          (mlp): Mlp(
            (fc1): Linear(in_features=1152, out_features=4304, bias=True)
            (act): GELU(approximate='none')
            (drop1): Dropout(p=0.0, inplace=False)
            (norm): Identity()
            (fc2): Linear(in_features=4304, out_features=1152, bias=True)
            (drop2): Dropout(p=0.0, inplace=False)
          )
          (ls2): Identity()
          (drop_path2): Identity()
        )
        (7): Block(
          (norm1): LayerNorm((1152,), eps=1e-06, elementwise_affine=True)
          (attn): Attention(
            (qkv): Linear(in_features=1152, out_features=3456, bias=True)
            (q_norm): Identity()
            (k_norm): Identity()
            (attn_drop): Dropout(p=0.0, inplace=False)
            (proj): Linear(in_features=1152, out_features=1152, bias=True)
            (proj_drop): Dropout(p=0.0, inplace=False)
          )
          (ls1): Identity()
          (drop_path1): Identity()
          (norm2): LayerNorm((1152,), eps=1e-06, elementwise_affine=True)
          (mlp): Mlp(
            (fc1): Linear(in_features=1152, out_features=4304, bias=True)
            (act): GELU(approximate='none')
            (drop1): Dropout(p=0.0, inplace=False)
            (norm): Identity()
            (fc2): Linear(in_features=4304, out_features=1152, bias=True)
            (drop2): Dropout(p=0.0, inplace=False)
          )
          (ls2): Identity()
          (drop_path2): Identity()
        )
        (8): Block(
          (norm1): LayerNorm((1152,), eps=1e-06, elementwise_affine=True)
          (attn): Attention(
            (qkv): Linear(in_features=1152, out_features=3456, bias=True)
            (q_norm): Identity()
            (k_norm): Identity()
            (attn_drop): Dropout(p=0.0, inplace=False)
            (proj): Linear(in_features=1152, out_features=1152, bias=True)
            (proj_drop): Dropout(p=0.0, inplace=False)
          )
          (ls1): Identity()
          (drop_path1): Identity()
          (norm2): LayerNorm((1152,), eps=1e-06, elementwise_affine=True)
          (mlp): Mlp(
            (fc1): Linear(in_features=1152, out_features=4304, bias=True)
            (act): GELU(approximate='none')
            (drop1): Dropout(p=0.0, inplace=False)
            (norm): Identity()
            (fc2): Linear(in_features=4304, out_features=1152, bias=True)
            (drop2): Dropout(p=0.0, inplace=False)
          )
          (ls2): Identity()
          (drop_path2): Identity()
        )
        (9): Block(
          (norm1): LayerNorm((1152,), eps=1e-06, elementwise_affine=True)
          (attn): Attention(
            (qkv): Linear(in_features=1152, out_features=3456, bias=True)
            (q_norm): Identity()
            (k_norm): Identity()
            (attn_drop): Dropout(p=0.0, inplace=False)
            (proj): Linear(in_features=1152, out_features=1152, bias=True)
            (proj_drop): Dropout(p=0.0, inplace=False)
          )
          (ls1): Identity()
          (drop_path1): Identity()
          (norm2): LayerNorm((1152,), eps=1e-06, elementwise_affine=True)
          (mlp): Mlp(
            (fc1): Linear(in_features=1152, out_features=4304, bias=True)
            (act): GELU(approximate='none')
            (drop1): Dropout(p=0.0, inplace=False)
            (norm): Identity()
            (fc2): Linear(in_features=4304, out_features=1152, bias=True)
            (drop2): Dropout(p=0.0, inplace=False)
          )
          (ls2): Identity()
          (drop_path2): Identity()
        )
        (10): Block(
          (norm1): LayerNorm((1152,), eps=1e-06, elementwise_affine=True)
          (attn): Attention(
            (qkv): Linear(in_features=1152, out_features=3456, bias=True)
            (q_norm): Identity()
            (k_norm): Identity()
            (attn_drop): Dropout(p=0.0, inplace=False)
            (proj): Linear(in_features=1152, out_features=1152, bias=True)
            (proj_drop): Dropout(p=0.0, inplace=False)
          )
          (ls1): Identity()
          (drop_path1): Identity()
          (norm2): LayerNorm((1152,), eps=1e-06, elementwise_affine=True)
          (mlp): Mlp(
            (fc1): Linear(in_features=1152, out_features=4304, bias=True)
            (act): GELU(approximate='none')
            (drop1): Dropout(p=0.0, inplace=False)
            (norm): Identity()
            (fc2): Linear(in_features=4304, out_features=1152, bias=True)
            (drop2): Dropout(p=0.0, inplace=False)
          )
          (ls2): Identity()
          (drop_path2): Identity()
        )
        (11): Block(
          (norm1): LayerNorm((1152,), eps=1e-06, elementwise_affine=True)
          (attn): Attention(
            (qkv): Linear(in_features=1152, out_features=3456, bias=True)
            (q_norm): Identity()
            (k_norm): Identity()
            (attn_drop): Dropout(p=0.0, inplace=False)
            (proj): Linear(in_features=1152, out_features=1152, bias=True)
            (proj_drop): Dropout(p=0.0, inplace=False)
          )
          (ls1): Identity()
          (drop_path1): Identity()
          (norm2): LayerNorm((1152,), eps=1e-06, elementwise_affine=True)
          (mlp): Mlp(
            (fc1): Linear(in_features=1152, out_features=4304, bias=True)
            (act): GELU(approximate='none')
            (drop1): Dropout(p=0.0, inplace=False)
            (norm): Identity()
            (fc2): Linear(in_features=4304, out_features=1152, bias=True)
            (drop2): Dropout(p=0.0, inplace=False)
          )
          (ls2): Identity()
          (drop_path2): Identity()
        )
        (12): Block(
          (norm1): LayerNorm((1152,), eps=1e-06, elementwise_affine=True)
          (attn): Attention(
            (qkv): Linear(in_features=1152, out_features=3456, bias=True)
            (q_norm): Identity()
            (k_norm): Identity()
            (attn_drop): Dropout(p=0.0, inplace=False)
            (proj): Linear(in_features=1152, out_features=1152, bias=True)
            (proj_drop): Dropout(p=0.0, inplace=False)
          )
          (ls1): Identity()
          (drop_path1): Identity()
          (norm2): LayerNorm((1152,), eps=1e-06, elementwise_affine=True)
          (mlp): Mlp(
            (fc1): Linear(in_features=1152, out_features=4304, bias=True)
            (act): GELU(approximate='none')
            (drop1): Dropout(p=0.0, inplace=False)
            (norm): Identity()
            (fc2): Linear(in_features=4304, out_features=1152, bias=True)
            (drop2): Dropout(p=0.0, inplace=False)
          )
          (ls2): Identity()
          (drop_path2): Identity()
        )
        (13): Block(
          (norm1): LayerNorm((1152,), eps=1e-06, elementwise_affine=True)
          (attn): Attention(
            (qkv): Linear(in_features=1152, out_features=3456, bias=True)
            (q_norm): Identity()
            (k_norm): Identity()
            (attn_drop): Dropout(p=0.0, inplace=False)
            (proj): Linear(in_features=1152, out_features=1152, bias=True)
            (proj_drop): Dropout(p=0.0, inplace=False)
          )
          (ls1): Identity()
          (drop_path1): Identity()
          (norm2): LayerNorm((1152,), eps=1e-06, elementwise_affine=True)
          (mlp): Mlp(
            (fc1): Linear(in_features=1152, out_features=4304, bias=True)
            (act): GELU(approximate='none')
            (drop1): Dropout(p=0.0, inplace=False)
            (norm): Identity()
            (fc2): Linear(in_features=4304, out_features=1152, bias=True)
            (drop2): Dropout(p=0.0, inplace=False)
          )
          (ls2): Identity()
          (drop_path2): Identity()
        )
        (14): Block(
          (norm1): LayerNorm((1152,), eps=1e-06, elementwise_affine=True)
          (attn): Attention(
            (qkv): Linear(in_features=1152, out_features=3456, bias=True)
            (q_norm): Identity()
            (k_norm): Identity()
            (attn_drop): Dropout(p=0.0, inplace=False)
            (proj): Linear(in_features=1152, out_features=1152, bias=True)
            (proj_drop): Dropout(p=0.0, inplace=False)
          )
          (ls1): Identity()
          (drop_path1): Identity()
          (norm2): LayerNorm((1152,), eps=1e-06, elementwise_affine=True)
          (mlp): Mlp(
            (fc1): Linear(in_features=1152, out_features=4304, bias=True)
            (act): GELU(approximate='none')
            (drop1): Dropout(p=0.0, inplace=False)
            (norm): Identity()
            (fc2): Linear(in_features=4304, out_features=1152, bias=True)
            (drop2): Dropout(p=0.0, inplace=False)
          )
          (ls2): Identity()
          (drop_path2): Identity()
        )
        (15): Block(
          (norm1): LayerNorm((1152,), eps=1e-06, elementwise_affine=True)
          (attn): Attention(
            (qkv): Linear(in_features=1152, out_features=3456, bias=True)
            (q_norm): Identity()
            (k_norm): Identity()
            (attn_drop): Dropout(p=0.0, inplace=False)
            (proj): Linear(in_features=1152, out_features=1152, bias=True)
            (proj_drop): Dropout(p=0.0, inplace=False)
          )
          (ls1): Identity()
          (drop_path1): Identity()
          (norm2): LayerNorm((1152,), eps=1e-06, elementwise_affine=True)
          (mlp): Mlp(
            (fc1): Linear(in_features=1152, out_features=4304, bias=True)
            (act): GELU(approximate='none')
            (drop1): Dropout(p=0.0, inplace=False)
            (norm): Identity()
            (fc2): Linear(in_features=4304, out_features=1152, bias=True)
            (drop2): Dropout(p=0.0, inplace=False)
          )
          (ls2): Identity()
          (drop_path2): Identity()
        )
        (16): Block(
          (norm1): LayerNorm((1152,), eps=1e-06, elementwise_affine=True)
          (attn): Attention(
            (qkv): Linear(in_features=1152, out_features=3456, bias=True)
            (q_norm): Identity()
            (k_norm): Identity()
            (attn_drop): Dropout(p=0.0, inplace=False)
            (proj): Linear(in_features=1152, out_features=1152, bias=True)
            (proj_drop): Dropout(p=0.0, inplace=False)
          )
          (ls1): Identity()
          (drop_path1): Identity()
          (norm2): LayerNorm((1152,), eps=1e-06, elementwise_affine=True)
          (mlp): Mlp(
            (fc1): Linear(in_features=1152, out_features=4304, bias=True)
            (act): GELU(approximate='none')
            (drop1): Dropout(p=0.0, inplace=False)
            (norm): Identity()
            (fc2): Linear(in_features=4304, out_features=1152, bias=True)
            (drop2): Dropout(p=0.0, inplace=False)
          )
          (ls2): Identity()
          (drop_path2): Identity()
        )
        (17): Block(
          (norm1): LayerNorm((1152,), eps=1e-06, elementwise_affine=True)
          (attn): Attention(
            (qkv): Linear(in_features=1152, out_features=3456, bias=True)
            (q_norm): Identity()
            (k_norm): Identity()
            (attn_drop): Dropout(p=0.0, inplace=False)
            (proj): Linear(in_features=1152, out_features=1152, bias=True)
            (proj_drop): Dropout(p=0.0, inplace=False)
          )
          (ls1): Identity()
          (drop_path1): Identity()
          (norm2): LayerNorm((1152,), eps=1e-06, elementwise_affine=True)
          (mlp): Mlp(
            (fc1): Linear(in_features=1152, out_features=4304, bias=True)
            (act): GELU(approximate='none')
            (drop1): Dropout(p=0.0, inplace=False)
            (norm): Identity()
            (fc2): Linear(in_features=4304, out_features=1152, bias=True)
            (drop2): Dropout(p=0.0, inplace=False)
          )
          (ls2): Identity()
          (drop_path2): Identity()
        )
        (18): Block(
          (norm1): LayerNorm((1152,), eps=1e-06, elementwise_affine=True)
          (attn): Attention(
            (qkv): Linear(in_features=1152, out_features=3456, bias=True)
            (q_norm): Identity()
            (k_norm): Identity()
            (attn_drop): Dropout(p=0.0, inplace=False)
            (proj): Linear(in_features=1152, out_features=1152, bias=True)
            (proj_drop): Dropout(p=0.0, inplace=False)
          )
          (ls1): Identity()
          (drop_path1): Identity()
          (norm2): LayerNorm((1152,), eps=1e-06, elementwise_affine=True)
          (mlp): Mlp(
            (fc1): Linear(in_features=1152, out_features=4304, bias=True)
            (act): GELU(approximate='none')
            (drop1): Dropout(p=0.0, inplace=False)
            (norm): Identity()
            (fc2): Linear(in_features=4304, out_features=1152, bias=True)
            (drop2): Dropout(p=0.0, inplace=False)
          )
          (ls2): Identity()
          (drop_path2): Identity()
        )
        (19): Block(
          (norm1): LayerNorm((1152,), eps=1e-06, elementwise_affine=True)
          (attn): Attention(
            (qkv): Linear(in_features=1152, out_features=3456, bias=True)
            (q_norm): Identity()
            (k_norm): Identity()
            (attn_drop): Dropout(p=0.0, inplace=False)
            (proj): Linear(in_features=1152, out_features=1152, bias=True)
            (proj_drop): Dropout(p=0.0, inplace=False)
          )
          (ls1): Identity()
          (drop_path1): Identity()
          (norm2): LayerNorm((1152,), eps=1e-06, elementwise_affine=True)
          (mlp): Mlp(
            (fc1): Linear(in_features=1152, out_features=4304, bias=True)
            (act): GELU(approximate='none')
            (drop1): Dropout(p=0.0, inplace=False)
            (norm): Identity()
            (fc2): Linear(in_features=4304, out_features=1152, bias=True)
            (drop2): Dropout(p=0.0, inplace=False)
          )
          (ls2): Identity()
          (drop_path2): Identity()
        )
        (20): Block(
          (norm1): LayerNorm((1152,), eps=1e-06, elementwise_affine=True)
          (attn): Attention(
            (qkv): Linear(in_features=1152, out_features=3456, bias=True)
            (q_norm): Identity()
            (k_norm): Identity()
            (attn_drop): Dropout(p=0.0, inplace=False)
            (proj): Linear(in_features=1152, out_features=1152, bias=True)
            (proj_drop): Dropout(p=0.0, inplace=False)
          )
          (ls1): Identity()
          (drop_path1): Identity()
          (norm2): LayerNorm((1152,), eps=1e-06, elementwise_affine=True)
          (mlp): Mlp(
            (fc1): Linear(in_features=1152, out_features=4304, bias=True)
            (act): GELU(approximate='none')
            (drop1): Dropout(p=0.0, inplace=False)
            (norm): Identity()
            (fc2): Linear(in_features=4304, out_features=1152, bias=True)
            (drop2): Dropout(p=0.0, inplace=False)
          )
          (ls2): Identity()
          (drop_path2): Identity()
        )
        (21): Block(
          (norm1): LayerNorm((1152,), eps=1e-06, elementwise_affine=True)
          (attn): Attention(
            (qkv): Linear(in_features=1152, out_features=3456, bias=True)
            (q_norm): Identity()
            (k_norm): Identity()
            (attn_drop): Dropout(p=0.0, inplace=False)
            (proj): Linear(in_features=1152, out_features=1152, bias=True)
            (proj_drop): Dropout(p=0.0, inplace=False)
          )
          (ls1): Identity()
          (drop_path1): Identity()
          (norm2): LayerNorm((1152,), eps=1e-06, elementwise_affine=True)
          (mlp): Mlp(
            (fc1): Linear(in_features=1152, out_features=4304, bias=True)
            (act): GELU(approximate='none')
            (drop1): Dropout(p=0.0, inplace=False)
            (norm): Identity()
            (fc2): Linear(in_features=4304, out_features=1152, bias=True)
            (drop2): Dropout(p=0.0, inplace=False)
          )
          (ls2): Identity()
          (drop_path2): Identity()
        )
        (22): Block(
          (norm1): LayerNorm((1152,), eps=1e-06, elementwise_affine=True)
          (attn): Attention(
            (qkv): Linear(in_features=1152, out_features=3456, bias=True)
            (q_norm): Identity()
            (k_norm): Identity()
            (attn_drop): Dropout(p=0.0, inplace=False)
            (proj): Linear(in_features=1152, out_features=1152, bias=True)
            (proj_drop): Dropout(p=0.0, inplace=False)
          )
          (ls1): Identity()
          (drop_path1): Identity()
          (norm2): LayerNorm((1152,), eps=1e-06, elementwise_affine=True)
          (mlp): Mlp(
            (fc1): Linear(in_features=1152, out_features=4304, bias=True)
            (act): GELU(approximate='none')
            (drop1): Dropout(p=0.0, inplace=False)
            (norm): Identity()
            (fc2): Linear(in_features=4304, out_features=1152, bias=True)
            (drop2): Dropout(p=0.0, inplace=False)
          )
          (ls2): Identity()
          (drop_path2): Identity()
        )
        (23): Block(
          (norm1): LayerNorm((1152,), eps=1e-06, elementwise_affine=True)
          (attn): Attention(
            (qkv): Linear(in_features=1152, out_features=3456, bias=True)
            (q_norm): Identity()
            (k_norm): Identity()
            (attn_drop): Dropout(p=0.0, inplace=False)
            (proj): Linear(in_features=1152, out_features=1152, bias=True)
            (proj_drop): Dropout(p=0.0, inplace=False)
          )
          (ls1): Identity()
          (drop_path1): Identity()
          (norm2): LayerNorm((1152,), eps=1e-06, elementwise_affine=True)
          (mlp): Mlp(
            (fc1): Linear(in_features=1152, out_features=4304, bias=True)
            (act): GELU(approximate='none')
            (drop1): Dropout(p=0.0, inplace=False)
            (norm): Identity()
            (fc2): Linear(in_features=4304, out_features=1152, bias=True)
            (drop2): Dropout(p=0.0, inplace=False)
          )
          (ls2): Identity()
          (drop_path2): Identity()
        )
        (24): Block(
          (norm1): LayerNorm((1152,), eps=1e-06, elementwise_affine=True)
          (attn): Attention(
            (qkv): Linear(in_features=1152, out_features=3456, bias=True)
            (q_norm): Identity()
            (k_norm): Identity()
            (attn_drop): Dropout(p=0.0, inplace=False)
            (proj): Linear(in_features=1152, out_features=1152, bias=True)
            (proj_drop): Dropout(p=0.0, inplace=False)
          )
          (ls1): Identity()
          (drop_path1): Identity()
          (norm2): LayerNorm((1152,), eps=1e-06, elementwise_affine=True)
          (mlp): Mlp(
            (fc1): Linear(in_features=1152, out_features=4304, bias=True)
            (act): GELU(approximate='none')
            (drop1): Dropout(p=0.0, inplace=False)
            (norm): Identity()
            (fc2): Linear(in_features=4304, out_features=1152, bias=True)
            (drop2): Dropout(p=0.0, inplace=False)
          )
          (ls2): Identity()
          (drop_path2): Identity()
        )
        (25): Block(
          (norm1): LayerNorm((1152,), eps=1e-06, elementwise_affine=True)
          (attn): Attention(
            (qkv): Linear(in_features=1152, out_features=3456, bias=True)
            (q_norm): Identity()
            (k_norm): Identity()
            (attn_drop): Dropout(p=0.0, inplace=False)
            (proj): Linear(in_features=1152, out_features=1152, bias=True)
            (proj_drop): Dropout(p=0.0, inplace=False)
          )
          (ls1): Identity()
          (drop_path1): Identity()
          (norm2): LayerNorm((1152,), eps=1e-06, elementwise_affine=True)
          (mlp): Mlp(
            (fc1): Linear(in_features=1152, out_features=4304, bias=True)
            (act): GELU(approximate='none')
            (drop1): Dropout(p=0.0, inplace=False)
            (norm): Identity()
            (fc2): Linear(in_features=4304, out_features=1152, bias=True)
            (drop2): Dropout(p=0.0, inplace=False)
          )
          (ls2): Identity()
          (drop_path2): Identity()
        )
        (26): Block(
          (norm1): LayerNorm((1152,), eps=1e-06, elementwise_affine=True)
          (attn): Attention(
            (qkv): Linear(in_features=1152, out_features=3456, bias=True)
            (q_norm): Identity()
            (k_norm): Identity()
            (attn_drop): Dropout(p=0.0, inplace=False)
            (proj): Linear(in_features=1152, out_features=1152, bias=True)
            (proj_drop): Dropout(p=0.0, inplace=False)
          )
          (ls1): Identity()
          (drop_path1): Identity()
          (norm2): LayerNorm((1152,), eps=1e-06, elementwise_affine=True)
          (mlp): Mlp(
            (fc1): Linear(in_features=1152, out_features=4304, bias=True)
            (act): GELU(approximate='none')
            (drop1): Dropout(p=0.0, inplace=False)
            (norm): Identity()
            (fc2): Linear(in_features=4304, out_features=1152, bias=True)
            (drop2): Dropout(p=0.0, inplace=False)
          )
          (ls2): Identity()
          (drop_path2): Identity()
        )
      )
      (norm): LayerNorm((1152,), eps=1e-06, elementwise_affine=True)
      (attn_pool): AttentionPoolLatent(
        (q): Linear(in_features=1152, out_features=1152, bias=True)
        (kv): Linear(in_features=1152, out_features=2304, bias=True)
        (q_norm): Identity()
        (k_norm): Identity()
        (proj): Linear(in_features=1152, out_features=1152, bias=True)
        (proj_drop): Dropout(p=0.0, inplace=False)
        (norm): LayerNorm((1152,), eps=1e-06, elementwise_affine=True)
        (mlp): Mlp(
          (fc1): Linear(in_features=1152, out_features=4304, bias=True)
          (act): GELU(approximate='none')
          (drop1): Dropout(p=0.0, inplace=False)
          (norm): Identity()
          (fc2): Linear(in_features=4304, out_features=1152, bias=True)
          (drop2): Dropout(p=0.0, inplace=False)
        )
      )
      (fc_norm): Identity()
      (head_drop): Dropout(p=0.0, inplace=False)
      (head): Identity()
    )
  )
  (llm_backbone): LLaMa2LLMBackbone(
    (llm): LlamaForCausalLM(
      (model): LlamaModel(
        (embed_tokens): Embedding(32064, 4096)
        (layers): ModuleList(
          (0-31): 32 x LlamaDecoderLayer(
            (self_attn): LlamaSdpaAttention(
              (q_proj): Linear(in_features=4096, out_features=4096, bias=False)
              (k_proj): Linear(in_features=4096, out_features=4096, bias=False)
              (v_proj): Linear(in_features=4096, out_features=4096, bias=False)
              (o_proj): Linear(in_features=4096, out_features=4096, bias=False)
              (rotary_emb): LlamaRotaryEmbedding()
            )
            (mlp): LlamaMLP(
              (gate_proj): Linear(in_features=4096, out_features=11008, bias=False)
              (up_proj): Linear(in_features=4096, out_features=11008, bias=False)
              (down_proj): Linear(in_features=11008, out_features=4096, bias=False)
              (act_fn): SiLU()
            )
            (input_layernorm): LlamaRMSNorm()
            (post_attention_layernorm): LlamaRMSNorm()
          )
        )
        (norm): LlamaRMSNorm()
      )
      (lm_head): Linear(in_features=4096, out_features=32064, bias=False)
    )
  )
  (projector): FusedMLPProjector(
    (projector): Sequential(
      (0): Linear(in_features=2176, out_features=8704, bias=True)
      (1): GELU(approximate='none')
      (2): Linear(in_features=8704, out_features=4096, bias=True)
      (3): GELU(approximate='none')
      (4): Linear(in_features=4096, out_features=4096, bias=True)
    )
  )
)
vision_backbone: DinoSigLIPViTBackbone(
  (dino_featurizer): VisionTransformer(
    (patch_embed): PatchEmbed(
      (proj): Conv2d(3, 1024, kernel_size=(14, 14), stride=(14, 14))
      (norm): Identity()
    )
    (pos_drop): Dropout(p=0.0, inplace=False)
    (patch_drop): Identity()
    (norm_pre): Identity()
    (blocks): Sequential(
      (0): Block(
        (norm1): LayerNorm((1024,), eps=1e-06, elementwise_affine=True)
        (attn): Attention(
          (qkv): Linear(in_features=1024, out_features=3072, bias=True)
          (q_norm): Identity()
          (k_norm): Identity()
          (attn_drop): Dropout(p=0.0, inplace=False)
          (proj): Linear(in_features=1024, out_features=1024, bias=True)
          (proj_drop): Dropout(p=0.0, inplace=False)
        )
        (ls1): LayerScale()
        (drop_path1): Identity()
        (norm2): LayerNorm((1024,), eps=1e-06, elementwise_affine=True)
        (mlp): Mlp(
          (fc1): Linear(in_features=1024, out_features=4096, bias=True)
          (act): GELU(approximate='none')
          (drop1): Dropout(p=0.0, inplace=False)
          (norm): Identity()
          (fc2): Linear(in_features=4096, out_features=1024, bias=True)
          (drop2): Dropout(p=0.0, inplace=False)
        )
        (ls2): LayerScale()
        (drop_path2): Identity()
      )
      (1): Block(
        (norm1): LayerNorm((1024,), eps=1e-06, elementwise_affine=True)
        (attn): Attention(
          (qkv): Linear(in_features=1024, out_features=3072, bias=True)
          (q_norm): Identity()
          (k_norm): Identity()
          (attn_drop): Dropout(p=0.0, inplace=False)
          (proj): Linear(in_features=1024, out_features=1024, bias=True)
          (proj_drop): Dropout(p=0.0, inplace=False)
        )
        (ls1): LayerScale()
        (drop_path1): Identity()
        (norm2): LayerNorm((1024,), eps=1e-06, elementwise_affine=True)
        (mlp): Mlp(
          (fc1): Linear(in_features=1024, out_features=4096, bias=True)
          (act): GELU(approximate='none')
          (drop1): Dropout(p=0.0, inplace=False)
          (norm): Identity()
          (fc2): Linear(in_features=4096, out_features=1024, bias=True)
          (drop2): Dropout(p=0.0, inplace=False)
        )
        (ls2): LayerScale()
        (drop_path2): Identity()
      )
      (2): Block(
        (norm1): LayerNorm((1024,), eps=1e-06, elementwise_affine=True)
        (attn): Attention(
          (qkv): Linear(in_features=1024, out_features=3072, bias=True)
          (q_norm): Identity()
          (k_norm): Identity()
          (attn_drop): Dropout(p=0.0, inplace=False)
          (proj): Linear(in_features=1024, out_features=1024, bias=True)
          (proj_drop): Dropout(p=0.0, inplace=False)
        )
        (ls1): LayerScale()
        (drop_path1): Identity()
        (norm2): LayerNorm((1024,), eps=1e-06, elementwise_affine=True)
        (mlp): Mlp(
          (fc1): Linear(in_features=1024, out_features=4096, bias=True)
          (act): GELU(approximate='none')
          (drop1): Dropout(p=0.0, inplace=False)
          (norm): Identity()
          (fc2): Linear(in_features=4096, out_features=1024, bias=True)
          (drop2): Dropout(p=0.0, inplace=False)
        )
        (ls2): LayerScale()
        (drop_path2): Identity()
      )
      (3): Block(
        (norm1): LayerNorm((1024,), eps=1e-06, elementwise_affine=True)
        (attn): Attention(
          (qkv): Linear(in_features=1024, out_features=3072, bias=True)
          (q_norm): Identity()
          (k_norm): Identity()
          (attn_drop): Dropout(p=0.0, inplace=False)
          (proj): Linear(in_features=1024, out_features=1024, bias=True)
          (proj_drop): Dropout(p=0.0, inplace=False)
        )
        (ls1): LayerScale()
        (drop_path1): Identity()
        (norm2): LayerNorm((1024,), eps=1e-06, elementwise_affine=True)
        (mlp): Mlp(
          (fc1): Linear(in_features=1024, out_features=4096, bias=True)
          (act): GELU(approximate='none')
          (drop1): Dropout(p=0.0, inplace=False)
          (norm): Identity()
          (fc2): Linear(in_features=4096, out_features=1024, bias=True)
          (drop2): Dropout(p=0.0, inplace=False)
        )
        (ls2): LayerScale()
        (drop_path2): Identity()
      )
      (4): Block(
        (norm1): LayerNorm((1024,), eps=1e-06, elementwise_affine=True)
        (attn): Attention(
          (qkv): Linear(in_features=1024, out_features=3072, bias=True)
          (q_norm): Identity()
          (k_norm): Identity()
          (attn_drop): Dropout(p=0.0, inplace=False)
          (proj): Linear(in_features=1024, out_features=1024, bias=True)
          (proj_drop): Dropout(p=0.0, inplace=False)
        )
        (ls1): LayerScale()
        (drop_path1): Identity()
        (norm2): LayerNorm((1024,), eps=1e-06, elementwise_affine=True)
        (mlp): Mlp(
          (fc1): Linear(in_features=1024, out_features=4096, bias=True)
          (act): GELU(approximate='none')
          (drop1): Dropout(p=0.0, inplace=False)
          (norm): Identity()
          (fc2): Linear(in_features=4096, out_features=1024, bias=True)
          (drop2): Dropout(p=0.0, inplace=False)
        )
        (ls2): LayerScale()
        (drop_path2): Identity()
      )
      (5): Block(
        (norm1): LayerNorm((1024,), eps=1e-06, elementwise_affine=True)
        (attn): Attention(
          (qkv): Linear(in_features=1024, out_features=3072, bias=True)
          (q_norm): Identity()
          (k_norm): Identity()
          (attn_drop): Dropout(p=0.0, inplace=False)
          (proj): Linear(in_features=1024, out_features=1024, bias=True)
          (proj_drop): Dropout(p=0.0, inplace=False)
        )
        (ls1): LayerScale()
        (drop_path1): Identity()
        (norm2): LayerNorm((1024,), eps=1e-06, elementwise_affine=True)
        (mlp): Mlp(
          (fc1): Linear(in_features=1024, out_features=4096, bias=True)
          (act): GELU(approximate='none')
          (drop1): Dropout(p=0.0, inplace=False)
          (norm): Identity()
          (fc2): Linear(in_features=4096, out_features=1024, bias=True)
          (drop2): Dropout(p=0.0, inplace=False)
        )
        (ls2): LayerScale()
        (drop_path2): Identity()
      )
      (6): Block(
        (norm1): LayerNorm((1024,), eps=1e-06, elementwise_affine=True)
        (attn): Attention(
          (qkv): Linear(in_features=1024, out_features=3072, bias=True)
          (q_norm): Identity()
          (k_norm): Identity()
          (attn_drop): Dropout(p=0.0, inplace=False)
          (proj): Linear(in_features=1024, out_features=1024, bias=True)
          (proj_drop): Dropout(p=0.0, inplace=False)
        )
        (ls1): LayerScale()
        (drop_path1): Identity()
        (norm2): LayerNorm((1024,), eps=1e-06, elementwise_affine=True)
        (mlp): Mlp(
          (fc1): Linear(in_features=1024, out_features=4096, bias=True)
          (act): GELU(approximate='none')
          (drop1): Dropout(p=0.0, inplace=False)
          (norm): Identity()
          (fc2): Linear(in_features=4096, out_features=1024, bias=True)
          (drop2): Dropout(p=0.0, inplace=False)
        )
        (ls2): LayerScale()
        (drop_path2): Identity()
      )
      (7): Block(
        (norm1): LayerNorm((1024,), eps=1e-06, elementwise_affine=True)
        (attn): Attention(
          (qkv): Linear(in_features=1024, out_features=3072, bias=True)
          (q_norm): Identity()
          (k_norm): Identity()
          (attn_drop): Dropout(p=0.0, inplace=False)
          (proj): Linear(in_features=1024, out_features=1024, bias=True)
          (proj_drop): Dropout(p=0.0, inplace=False)
        )
        (ls1): LayerScale()
        (drop_path1): Identity()
        (norm2): LayerNorm((1024,), eps=1e-06, elementwise_affine=True)
        (mlp): Mlp(
          (fc1): Linear(in_features=1024, out_features=4096, bias=True)
          (act): GELU(approximate='none')
          (drop1): Dropout(p=0.0, inplace=False)
          (norm): Identity()
          (fc2): Linear(in_features=4096, out_features=1024, bias=True)
          (drop2): Dropout(p=0.0, inplace=False)
        )
        (ls2): LayerScale()
        (drop_path2): Identity()
      )
      (8): Block(
        (norm1): LayerNorm((1024,), eps=1e-06, elementwise_affine=True)
        (attn): Attention(
          (qkv): Linear(in_features=1024, out_features=3072, bias=True)
          (q_norm): Identity()
          (k_norm): Identity()
          (attn_drop): Dropout(p=0.0, inplace=False)
          (proj): Linear(in_features=1024, out_features=1024, bias=True)
          (proj_drop): Dropout(p=0.0, inplace=False)
        )
        (ls1): LayerScale()
        (drop_path1): Identity()
        (norm2): LayerNorm((1024,), eps=1e-06, elementwise_affine=True)
        (mlp): Mlp(
          (fc1): Linear(in_features=1024, out_features=4096, bias=True)
          (act): GELU(approximate='none')
          (drop1): Dropout(p=0.0, inplace=False)
          (norm): Identity()
          (fc2): Linear(in_features=4096, out_features=1024, bias=True)
          (drop2): Dropout(p=0.0, inplace=False)
        )
        (ls2): LayerScale()
        (drop_path2): Identity()
      )
      (9): Block(
        (norm1): LayerNorm((1024,), eps=1e-06, elementwise_affine=True)
        (attn): Attention(
          (qkv): Linear(in_features=1024, out_features=3072, bias=True)
          (q_norm): Identity()
          (k_norm): Identity()
          (attn_drop): Dropout(p=0.0, inplace=False)
          (proj): Linear(in_features=1024, out_features=1024, bias=True)
          (proj_drop): Dropout(p=0.0, inplace=False)
        )
        (ls1): LayerScale()
        (drop_path1): Identity()
        (norm2): LayerNorm((1024,), eps=1e-06, elementwise_affine=True)
        (mlp): Mlp(
          (fc1): Linear(in_features=1024, out_features=4096, bias=True)
          (act): GELU(approximate='none')
          (drop1): Dropout(p=0.0, inplace=False)
          (norm): Identity()
          (fc2): Linear(in_features=4096, out_features=1024, bias=True)
          (drop2): Dropout(p=0.0, inplace=False)
        )
        (ls2): LayerScale()
        (drop_path2): Identity()
      )
      (10): Block(
        (norm1): LayerNorm((1024,), eps=1e-06, elementwise_affine=True)
        (attn): Attention(
          (qkv): Linear(in_features=1024, out_features=3072, bias=True)
          (q_norm): Identity()
          (k_norm): Identity()
          (attn_drop): Dropout(p=0.0, inplace=False)
          (proj): Linear(in_features=1024, out_features=1024, bias=True)
          (proj_drop): Dropout(p=0.0, inplace=False)
        )
        (ls1): LayerScale()
        (drop_path1): Identity()
        (norm2): LayerNorm((1024,), eps=1e-06, elementwise_affine=True)
        (mlp): Mlp(
          (fc1): Linear(in_features=1024, out_features=4096, bias=True)
          (act): GELU(approximate='none')
          (drop1): Dropout(p=0.0, inplace=False)
          (norm): Identity()
          (fc2): Linear(in_features=4096, out_features=1024, bias=True)
          (drop2): Dropout(p=0.0, inplace=False)
        )
        (ls2): LayerScale()
        (drop_path2): Identity()
      )
      (11): Block(
        (norm1): LayerNorm((1024,), eps=1e-06, elementwise_affine=True)
        (attn): Attention(
          (qkv): Linear(in_features=1024, out_features=3072, bias=True)
          (q_norm): Identity()
          (k_norm): Identity()
          (attn_drop): Dropout(p=0.0, inplace=False)
          (proj): Linear(in_features=1024, out_features=1024, bias=True)
          (proj_drop): Dropout(p=0.0, inplace=False)
        )
        (ls1): LayerScale()
        (drop_path1): Identity()
        (norm2): LayerNorm((1024,), eps=1e-06, elementwise_affine=True)
        (mlp): Mlp(
          (fc1): Linear(in_features=1024, out_features=4096, bias=True)
          (act): GELU(approximate='none')
          (drop1): Dropout(p=0.0, inplace=False)
          (norm): Identity()
          (fc2): Linear(in_features=4096, out_features=1024, bias=True)
          (drop2): Dropout(p=0.0, inplace=False)
        )
        (ls2): LayerScale()
        (drop_path2): Identity()
      )
      (12): Block(
        (norm1): LayerNorm((1024,), eps=1e-06, elementwise_affine=True)
        (attn): Attention(
          (qkv): Linear(in_features=1024, out_features=3072, bias=True)
          (q_norm): Identity()
          (k_norm): Identity()
          (attn_drop): Dropout(p=0.0, inplace=False)
          (proj): Linear(in_features=1024, out_features=1024, bias=True)
          (proj_drop): Dropout(p=0.0, inplace=False)
        )
        (ls1): LayerScale()
        (drop_path1): Identity()
        (norm2): LayerNorm((1024,), eps=1e-06, elementwise_affine=True)
        (mlp): Mlp(
          (fc1): Linear(in_features=1024, out_features=4096, bias=True)
          (act): GELU(approximate='none')
          (drop1): Dropout(p=0.0, inplace=False)
          (norm): Identity()
          (fc2): Linear(in_features=4096, out_features=1024, bias=True)
          (drop2): Dropout(p=0.0, inplace=False)
        )
        (ls2): LayerScale()
        (drop_path2): Identity()
      )
      (13): Block(
        (norm1): LayerNorm((1024,), eps=1e-06, elementwise_affine=True)
        (attn): Attention(
          (qkv): Linear(in_features=1024, out_features=3072, bias=True)
          (q_norm): Identity()
          (k_norm): Identity()
          (attn_drop): Dropout(p=0.0, inplace=False)
          (proj): Linear(in_features=1024, out_features=1024, bias=True)
          (proj_drop): Dropout(p=0.0, inplace=False)
        )
        (ls1): LayerScale()
        (drop_path1): Identity()
        (norm2): LayerNorm((1024,), eps=1e-06, elementwise_affine=True)
        (mlp): Mlp(
          (fc1): Linear(in_features=1024, out_features=4096, bias=True)
          (act): GELU(approximate='none')
          (drop1): Dropout(p=0.0, inplace=False)
          (norm): Identity()
          (fc2): Linear(in_features=4096, out_features=1024, bias=True)
          (drop2): Dropout(p=0.0, inplace=False)
        )
        (ls2): LayerScale()
        (drop_path2): Identity()
      )
      (14): Block(
        (norm1): LayerNorm((1024,), eps=1e-06, elementwise_affine=True)
        (attn): Attention(
          (qkv): Linear(in_features=1024, out_features=3072, bias=True)
          (q_norm): Identity()
          (k_norm): Identity()
          (attn_drop): Dropout(p=0.0, inplace=False)
          (proj): Linear(in_features=1024, out_features=1024, bias=True)
          (proj_drop): Dropout(p=0.0, inplace=False)
        )
        (ls1): LayerScale()
        (drop_path1): Identity()
        (norm2): LayerNorm((1024,), eps=1e-06, elementwise_affine=True)
        (mlp): Mlp(
          (fc1): Linear(in_features=1024, out_features=4096, bias=True)
          (act): GELU(approximate='none')
          (drop1): Dropout(p=0.0, inplace=False)
          (norm): Identity()
          (fc2): Linear(in_features=4096, out_features=1024, bias=True)
          (drop2): Dropout(p=0.0, inplace=False)
        )
        (ls2): LayerScale()
        (drop_path2): Identity()
      )
      (15): Block(
        (norm1): LayerNorm((1024,), eps=1e-06, elementwise_affine=True)
        (attn): Attention(
          (qkv): Linear(in_features=1024, out_features=3072, bias=True)
          (q_norm): Identity()
          (k_norm): Identity()
          (attn_drop): Dropout(p=0.0, inplace=False)
          (proj): Linear(in_features=1024, out_features=1024, bias=True)
          (proj_drop): Dropout(p=0.0, inplace=False)
        )
        (ls1): LayerScale()
        (drop_path1): Identity()
        (norm2): LayerNorm((1024,), eps=1e-06, elementwise_affine=True)
        (mlp): Mlp(
          (fc1): Linear(in_features=1024, out_features=4096, bias=True)
          (act): GELU(approximate='none')
          (drop1): Dropout(p=0.0, inplace=False)
          (norm): Identity()
          (fc2): Linear(in_features=4096, out_features=1024, bias=True)
          (drop2): Dropout(p=0.0, inplace=False)
        )
        (ls2): LayerScale()
        (drop_path2): Identity()
      )
      (16): Block(
        (norm1): LayerNorm((1024,), eps=1e-06, elementwise_affine=True)
        (attn): Attention(
          (qkv): Linear(in_features=1024, out_features=3072, bias=True)
          (q_norm): Identity()
          (k_norm): Identity()
          (attn_drop): Dropout(p=0.0, inplace=False)
          (proj): Linear(in_features=1024, out_features=1024, bias=True)
          (proj_drop): Dropout(p=0.0, inplace=False)
        )
        (ls1): LayerScale()
        (drop_path1): Identity()
        (norm2): LayerNorm((1024,), eps=1e-06, elementwise_affine=True)
        (mlp): Mlp(
          (fc1): Linear(in_features=1024, out_features=4096, bias=True)
          (act): GELU(approximate='none')
          (drop1): Dropout(p=0.0, inplace=False)
          (norm): Identity()
          (fc2): Linear(in_features=4096, out_features=1024, bias=True)
          (drop2): Dropout(p=0.0, inplace=False)
        )
        (ls2): LayerScale()
        (drop_path2): Identity()
      )
      (17): Block(
        (norm1): LayerNorm((1024,), eps=1e-06, elementwise_affine=True)
        (attn): Attention(
          (qkv): Linear(in_features=1024, out_features=3072, bias=True)
          (q_norm): Identity()
          (k_norm): Identity()
          (attn_drop): Dropout(p=0.0, inplace=False)
          (proj): Linear(in_features=1024, out_features=1024, bias=True)
          (proj_drop): Dropout(p=0.0, inplace=False)
        )
        (ls1): LayerScale()
        (drop_path1): Identity()
        (norm2): LayerNorm((1024,), eps=1e-06, elementwise_affine=True)
        (mlp): Mlp(
          (fc1): Linear(in_features=1024, out_features=4096, bias=True)
          (act): GELU(approximate='none')
          (drop1): Dropout(p=0.0, inplace=False)
          (norm): Identity()
          (fc2): Linear(in_features=4096, out_features=1024, bias=True)
          (drop2): Dropout(p=0.0, inplace=False)
        )
        (ls2): LayerScale()
        (drop_path2): Identity()
      )
      (18): Block(
        (norm1): LayerNorm((1024,), eps=1e-06, elementwise_affine=True)
        (attn): Attention(
          (qkv): Linear(in_features=1024, out_features=3072, bias=True)
          (q_norm): Identity()
          (k_norm): Identity()
          (attn_drop): Dropout(p=0.0, inplace=False)
          (proj): Linear(in_features=1024, out_features=1024, bias=True)
          (proj_drop): Dropout(p=0.0, inplace=False)
        )
        (ls1): LayerScale()
        (drop_path1): Identity()
        (norm2): LayerNorm((1024,), eps=1e-06, elementwise_affine=True)
        (mlp): Mlp(
          (fc1): Linear(in_features=1024, out_features=4096, bias=True)
          (act): GELU(approximate='none')
          (drop1): Dropout(p=0.0, inplace=False)
          (norm): Identity()
          (fc2): Linear(in_features=4096, out_features=1024, bias=True)
          (drop2): Dropout(p=0.0, inplace=False)
        )
        (ls2): LayerScale()
        (drop_path2): Identity()
      )
      (19): Block(
        (norm1): LayerNorm((1024,), eps=1e-06, elementwise_affine=True)
        (attn): Attention(
          (qkv): Linear(in_features=1024, out_features=3072, bias=True)
          (q_norm): Identity()
          (k_norm): Identity()
          (attn_drop): Dropout(p=0.0, inplace=False)
          (proj): Linear(in_features=1024, out_features=1024, bias=True)
          (proj_drop): Dropout(p=0.0, inplace=False)
        )
        (ls1): LayerScale()
        (drop_path1): Identity()
        (norm2): LayerNorm((1024,), eps=1e-06, elementwise_affine=True)
        (mlp): Mlp(
          (fc1): Linear(in_features=1024, out_features=4096, bias=True)
          (act): GELU(approximate='none')
          (drop1): Dropout(p=0.0, inplace=False)
          (norm): Identity()
          (fc2): Linear(in_features=4096, out_features=1024, bias=True)
          (drop2): Dropout(p=0.0, inplace=False)
        )
        (ls2): LayerScale()
        (drop_path2): Identity()
      )
      (20): Block(
        (norm1): LayerNorm((1024,), eps=1e-06, elementwise_affine=True)
        (attn): Attention(
          (qkv): Linear(in_features=1024, out_features=3072, bias=True)
          (q_norm): Identity()
          (k_norm): Identity()
          (attn_drop): Dropout(p=0.0, inplace=False)
          (proj): Linear(in_features=1024, out_features=1024, bias=True)
          (proj_drop): Dropout(p=0.0, inplace=False)
        )
        (ls1): LayerScale()
        (drop_path1): Identity()
        (norm2): LayerNorm((1024,), eps=1e-06, elementwise_affine=True)
        (mlp): Mlp(
          (fc1): Linear(in_features=1024, out_features=4096, bias=True)
          (act): GELU(approximate='none')
          (drop1): Dropout(p=0.0, inplace=False)
          (norm): Identity()
          (fc2): Linear(in_features=4096, out_features=1024, bias=True)
          (drop2): Dropout(p=0.0, inplace=False)
        )
        (ls2): LayerScale()
        (drop_path2): Identity()
      )
      (21): Block(
        (norm1): LayerNorm((1024,), eps=1e-06, elementwise_affine=True)
        (attn): Attention(
          (qkv): Linear(in_features=1024, out_features=3072, bias=True)
          (q_norm): Identity()
          (k_norm): Identity()
          (attn_drop): Dropout(p=0.0, inplace=False)
          (proj): Linear(in_features=1024, out_features=1024, bias=True)
          (proj_drop): Dropout(p=0.0, inplace=False)
        )
        (ls1): LayerScale()
        (drop_path1): Identity()
        (norm2): LayerNorm((1024,), eps=1e-06, elementwise_affine=True)
        (mlp): Mlp(
          (fc1): Linear(in_features=1024, out_features=4096, bias=True)
          (act): GELU(approximate='none')
          (drop1): Dropout(p=0.0, inplace=False)
          (norm): Identity()
          (fc2): Linear(in_features=4096, out_features=1024, bias=True)
          (drop2): Dropout(p=0.0, inplace=False)
        )
        (ls2): LayerScale()
        (drop_path2): Identity()
      )
      (22): Block(
        (norm1): LayerNorm((1024,), eps=1e-06, elementwise_affine=True)
        (attn): Attention(
          (qkv): Linear(in_features=1024, out_features=3072, bias=True)
          (q_norm): Identity()
          (k_norm): Identity()
          (attn_drop): Dropout(p=0.0, inplace=False)
          (proj): Linear(in_features=1024, out_features=1024, bias=True)
          (proj_drop): Dropout(p=0.0, inplace=False)
        )
        (ls1): LayerScale()
        (drop_path1): Identity()
        (norm2): LayerNorm((1024,), eps=1e-06, elementwise_affine=True)
        (mlp): Mlp(
          (fc1): Linear(in_features=1024, out_features=4096, bias=True)
          (act): GELU(approximate='none')
          (drop1): Dropout(p=0.0, inplace=False)
          (norm): Identity()
          (fc2): Linear(in_features=4096, out_features=1024, bias=True)
          (drop2): Dropout(p=0.0, inplace=False)
        )
        (ls2): LayerScale()
        (drop_path2): Identity()
      )
      (23): Block(
        (norm1): LayerNorm((1024,), eps=1e-06, elementwise_affine=True)
        (attn): Attention(
          (qkv): Linear(in_features=1024, out_features=3072, bias=True)
          (q_norm): Identity()
          (k_norm): Identity()
          (attn_drop): Dropout(p=0.0, inplace=False)
          (proj): Linear(in_features=1024, out_features=1024, bias=True)
          (proj_drop): Dropout(p=0.0, inplace=False)
        )
        (ls1): LayerScale()
        (drop_path1): Identity()
        (norm2): LayerNorm((1024,), eps=1e-06, elementwise_affine=True)
        (mlp): Mlp(
          (fc1): Linear(in_features=1024, out_features=4096, bias=True)
          (act): GELU(approximate='none')
          (drop1): Dropout(p=0.0, inplace=False)
          (norm): Identity()
          (fc2): Linear(in_features=4096, out_features=1024, bias=True)
          (drop2): Dropout(p=0.0, inplace=False)
        )
        (ls2): LayerScale()
        (drop_path2): Identity()
      )
    )
    (norm): LayerNorm((1024,), eps=1e-06, elementwise_affine=True)
    (fc_norm): Identity()
    (head_drop): Dropout(p=0.0, inplace=False)
    (head): Identity()
  )
  (siglip_featurizer): VisionTransformer(
    (patch_embed): PatchEmbed(
      (proj): Conv2d(3, 1152, kernel_size=(14, 14), stride=(14, 14))
      (norm): Identity()
    )
    (pos_drop): Dropout(p=0.0, inplace=False)
    (patch_drop): Identity()
    (norm_pre): Identity()
    (blocks): Sequential(
      (0): Block(
        (norm1): LayerNorm((1152,), eps=1e-06, elementwise_affine=True)
        (attn): Attention(
          (qkv): Linear(in_features=1152, out_features=3456, bias=True)
          (q_norm): Identity()
          (k_norm): Identity()
          (attn_drop): Dropout(p=0.0, inplace=False)
          (proj): Linear(in_features=1152, out_features=1152, bias=True)
          (proj_drop): Dropout(p=0.0, inplace=False)
        )
        (ls1): Identity()
        (drop_path1): Identity()
        (norm2): LayerNorm((1152,), eps=1e-06, elementwise_affine=True)
        (mlp): Mlp(
          (fc1): Linear(in_features=1152, out_features=4304, bias=True)
          (act): GELU(approximate='none')
          (drop1): Dropout(p=0.0, inplace=False)
          (norm): Identity()
          (fc2): Linear(in_features=4304, out_features=1152, bias=True)
          (drop2): Dropout(p=0.0, inplace=False)
        )
        (ls2): Identity()
        (drop_path2): Identity()
      )
      (1): Block(
        (norm1): LayerNorm((1152,), eps=1e-06, elementwise_affine=True)
        (attn): Attention(
          (qkv): Linear(in_features=1152, out_features=3456, bias=True)
          (q_norm): Identity()
          (k_norm): Identity()
          (attn_drop): Dropout(p=0.0, inplace=False)
          (proj): Linear(in_features=1152, out_features=1152, bias=True)
          (proj_drop): Dropout(p=0.0, inplace=False)
        )
        (ls1): Identity()
        (drop_path1): Identity()
        (norm2): LayerNorm((1152,), eps=1e-06, elementwise_affine=True)
        (mlp): Mlp(
          (fc1): Linear(in_features=1152, out_features=4304, bias=True)
          (act): GELU(approximate='none')
          (drop1): Dropout(p=0.0, inplace=False)
          (norm): Identity()
          (fc2): Linear(in_features=4304, out_features=1152, bias=True)
          (drop2): Dropout(p=0.0, inplace=False)
        )
        (ls2): Identity()
        (drop_path2): Identity()
      )
      (2): Block(
        (norm1): LayerNorm((1152,), eps=1e-06, elementwise_affine=True)
        (attn): Attention(
          (qkv): Linear(in_features=1152, out_features=3456, bias=True)
          (q_norm): Identity()
          (k_norm): Identity()
          (attn_drop): Dropout(p=0.0, inplace=False)
          (proj): Linear(in_features=1152, out_features=1152, bias=True)
          (proj_drop): Dropout(p=0.0, inplace=False)
        )
        (ls1): Identity()
        (drop_path1): Identity()
        (norm2): LayerNorm((1152,), eps=1e-06, elementwise_affine=True)
        (mlp): Mlp(
          (fc1): Linear(in_features=1152, out_features=4304, bias=True)
          (act): GELU(approximate='none')
          (drop1): Dropout(p=0.0, inplace=False)
          (norm): Identity()
          (fc2): Linear(in_features=4304, out_features=1152, bias=True)
          (drop2): Dropout(p=0.0, inplace=False)
        )
        (ls2): Identity()
        (drop_path2): Identity()
      )
      (3): Block(
        (norm1): LayerNorm((1152,), eps=1e-06, elementwise_affine=True)
        (attn): Attention(
          (qkv): Linear(in_features=1152, out_features=3456, bias=True)
          (q_norm): Identity()
          (k_norm): Identity()
          (attn_drop): Dropout(p=0.0, inplace=False)
          (proj): Linear(in_features=1152, out_features=1152, bias=True)
          (proj_drop): Dropout(p=0.0, inplace=False)
        )
        (ls1): Identity()
        (drop_path1): Identity()
        (norm2): LayerNorm((1152,), eps=1e-06, elementwise_affine=True)
        (mlp): Mlp(
          (fc1): Linear(in_features=1152, out_features=4304, bias=True)
          (act): GELU(approximate='none')
          (drop1): Dropout(p=0.0, inplace=False)
          (norm): Identity()
          (fc2): Linear(in_features=4304, out_features=1152, bias=True)
          (drop2): Dropout(p=0.0, inplace=False)
        )
        (ls2): Identity()
        (drop_path2): Identity()
      )
      (4): Block(
        (norm1): LayerNorm((1152,), eps=1e-06, elementwise_affine=True)
        (attn): Attention(
          (qkv): Linear(in_features=1152, out_features=3456, bias=True)
          (q_norm): Identity()
          (k_norm): Identity()
          (attn_drop): Dropout(p=0.0, inplace=False)
          (proj): Linear(in_features=1152, out_features=1152, bias=True)
          (proj_drop): Dropout(p=0.0, inplace=False)
        )
        (ls1): Identity()
        (drop_path1): Identity()
        (norm2): LayerNorm((1152,), eps=1e-06, elementwise_affine=True)
        (mlp): Mlp(
          (fc1): Linear(in_features=1152, out_features=4304, bias=True)
          (act): GELU(approximate='none')
          (drop1): Dropout(p=0.0, inplace=False)
          (norm): Identity()
          (fc2): Linear(in_features=4304, out_features=1152, bias=True)
          (drop2): Dropout(p=0.0, inplace=False)
        )
        (ls2): Identity()
        (drop_path2): Identity()
      )
      (5): Block(
        (norm1): LayerNorm((1152,), eps=1e-06, elementwise_affine=True)
        (attn): Attention(
          (qkv): Linear(in_features=1152, out_features=3456, bias=True)
          (q_norm): Identity()
          (k_norm): Identity()
          (attn_drop): Dropout(p=0.0, inplace=False)
          (proj): Linear(in_features=1152, out_features=1152, bias=True)
          (proj_drop): Dropout(p=0.0, inplace=False)
        )
        (ls1): Identity()
        (drop_path1): Identity()
        (norm2): LayerNorm((1152,), eps=1e-06, elementwise_affine=True)
        (mlp): Mlp(
          (fc1): Linear(in_features=1152, out_features=4304, bias=True)
          (act): GELU(approximate='none')
          (drop1): Dropout(p=0.0, inplace=False)
          (norm): Identity()
          (fc2): Linear(in_features=4304, out_features=1152, bias=True)
          (drop2): Dropout(p=0.0, inplace=False)
        )
        (ls2): Identity()
        (drop_path2): Identity()
      )
      (6): Block(
        (norm1): LayerNorm((1152,), eps=1e-06, elementwise_affine=True)
        (attn): Attention(
          (qkv): Linear(in_features=1152, out_features=3456, bias=True)
          (q_norm): Identity()
          (k_norm): Identity()
          (attn_drop): Dropout(p=0.0, inplace=False)
          (proj): Linear(in_features=1152, out_features=1152, bias=True)
          (proj_drop): Dropout(p=0.0, inplace=False)
        )
        (ls1): Identity()
        (drop_path1): Identity()
        (norm2): LayerNorm((1152,), eps=1e-06, elementwise_affine=True)
        (mlp): Mlp(
          (fc1): Linear(in_features=1152, out_features=4304, bias=True)
          (act): GELU(approximate='none')
          (drop1): Dropout(p=0.0, inplace=False)
          (norm): Identity()
          (fc2): Linear(in_features=4304, out_features=1152, bias=True)
          (drop2): Dropout(p=0.0, inplace=False)
        )
        (ls2): Identity()
        (drop_path2): Identity()
      )
      (7): Block(
        (norm1): LayerNorm((1152,), eps=1e-06, elementwise_affine=True)
        (attn): Attention(
          (qkv): Linear(in_features=1152, out_features=3456, bias=True)
          (q_norm): Identity()
          (k_norm): Identity()
          (attn_drop): Dropout(p=0.0, inplace=False)
          (proj): Linear(in_features=1152, out_features=1152, bias=True)
          (proj_drop): Dropout(p=0.0, inplace=False)
        )
        (ls1): Identity()
        (drop_path1): Identity()
        (norm2): LayerNorm((1152,), eps=1e-06, elementwise_affine=True)
        (mlp): Mlp(
          (fc1): Linear(in_features=1152, out_features=4304, bias=True)
          (act): GELU(approximate='none')
          (drop1): Dropout(p=0.0, inplace=False)
          (norm): Identity()
          (fc2): Linear(in_features=4304, out_features=1152, bias=True)
          (drop2): Dropout(p=0.0, inplace=False)
        )
        (ls2): Identity()
        (drop_path2): Identity()
      )
      (8): Block(
        (norm1): LayerNorm((1152,), eps=1e-06, elementwise_affine=True)
        (attn): Attention(
          (qkv): Linear(in_features=1152, out_features=3456, bias=True)
          (q_norm): Identity()
          (k_norm): Identity()
          (attn_drop): Dropout(p=0.0, inplace=False)
          (proj): Linear(in_features=1152, out_features=1152, bias=True)
          (proj_drop): Dropout(p=0.0, inplace=False)
        )
        (ls1): Identity()
        (drop_path1): Identity()
        (norm2): LayerNorm((1152,), eps=1e-06, elementwise_affine=True)
        (mlp): Mlp(
          (fc1): Linear(in_features=1152, out_features=4304, bias=True)
          (act): GELU(approximate='none')
          (drop1): Dropout(p=0.0, inplace=False)
          (norm): Identity()
          (fc2): Linear(in_features=4304, out_features=1152, bias=True)
          (drop2): Dropout(p=0.0, inplace=False)
        )
        (ls2): Identity()
        (drop_path2): Identity()
      )
      (9): Block(
        (norm1): LayerNorm((1152,), eps=1e-06, elementwise_affine=True)
        (attn): Attention(
          (qkv): Linear(in_features=1152, out_features=3456, bias=True)
          (q_norm): Identity()
          (k_norm): Identity()
          (attn_drop): Dropout(p=0.0, inplace=False)
          (proj): Linear(in_features=1152, out_features=1152, bias=True)
          (proj_drop): Dropout(p=0.0, inplace=False)
        )
        (ls1): Identity()
        (drop_path1): Identity()
        (norm2): LayerNorm((1152,), eps=1e-06, elementwise_affine=True)
        (mlp): Mlp(
          (fc1): Linear(in_features=1152, out_features=4304, bias=True)
          (act): GELU(approximate='none')
          (drop1): Dropout(p=0.0, inplace=False)
          (norm): Identity()
          (fc2): Linear(in_features=4304, out_features=1152, bias=True)
          (drop2): Dropout(p=0.0, inplace=False)
        )
        (ls2): Identity()
        (drop_path2): Identity()
      )
      (10): Block(
        (norm1): LayerNorm((1152,), eps=1e-06, elementwise_affine=True)
        (attn): Attention(
          (qkv): Linear(in_features=1152, out_features=3456, bias=True)
          (q_norm): Identity()
          (k_norm): Identity()
          (attn_drop): Dropout(p=0.0, inplace=False)
          (proj): Linear(in_features=1152, out_features=1152, bias=True)
          (proj_drop): Dropout(p=0.0, inplace=False)
        )
        (ls1): Identity()
        (drop_path1): Identity()
        (norm2): LayerNorm((1152,), eps=1e-06, elementwise_affine=True)
        (mlp): Mlp(
          (fc1): Linear(in_features=1152, out_features=4304, bias=True)
          (act): GELU(approximate='none')
          (drop1): Dropout(p=0.0, inplace=False)
          (norm): Identity()
          (fc2): Linear(in_features=4304, out_features=1152, bias=True)
          (drop2): Dropout(p=0.0, inplace=False)
        )
        (ls2): Identity()
        (drop_path2): Identity()
      )
      (11): Block(
        (norm1): LayerNorm((1152,), eps=1e-06, elementwise_affine=True)
        (attn): Attention(
          (qkv): Linear(in_features=1152, out_features=3456, bias=True)
          (q_norm): Identity()
          (k_norm): Identity()
          (attn_drop): Dropout(p=0.0, inplace=False)
          (proj): Linear(in_features=1152, out_features=1152, bias=True)
          (proj_drop): Dropout(p=0.0, inplace=False)
        )
        (ls1): Identity()
        (drop_path1): Identity()
        (norm2): LayerNorm((1152,), eps=1e-06, elementwise_affine=True)
        (mlp): Mlp(
          (fc1): Linear(in_features=1152, out_features=4304, bias=True)
          (act): GELU(approximate='none')
          (drop1): Dropout(p=0.0, inplace=False)
          (norm): Identity()
          (fc2): Linear(in_features=4304, out_features=1152, bias=True)
          (drop2): Dropout(p=0.0, inplace=False)
        )
        (ls2): Identity()
        (drop_path2): Identity()
      )
      (12): Block(
        (norm1): LayerNorm((1152,), eps=1e-06, elementwise_affine=True)
        (attn): Attention(
          (qkv): Linear(in_features=1152, out_features=3456, bias=True)
          (q_norm): Identity()
          (k_norm): Identity()
          (attn_drop): Dropout(p=0.0, inplace=False)
          (proj): Linear(in_features=1152, out_features=1152, bias=True)
          (proj_drop): Dropout(p=0.0, inplace=False)
        )
        (ls1): Identity()
        (drop_path1): Identity()
        (norm2): LayerNorm((1152,), eps=1e-06, elementwise_affine=True)
        (mlp): Mlp(
          (fc1): Linear(in_features=1152, out_features=4304, bias=True)
          (act): GELU(approximate='none')
          (drop1): Dropout(p=0.0, inplace=False)
          (norm): Identity()
          (fc2): Linear(in_features=4304, out_features=1152, bias=True)
          (drop2): Dropout(p=0.0, inplace=False)
        )
        (ls2): Identity()
        (drop_path2): Identity()
      )
      (13): Block(
        (norm1): LayerNorm((1152,), eps=1e-06, elementwise_affine=True)
        (attn): Attention(
          (qkv): Linear(in_features=1152, out_features=3456, bias=True)
          (q_norm): Identity()
          (k_norm): Identity()
          (attn_drop): Dropout(p=0.0, inplace=False)
          (proj): Linear(in_features=1152, out_features=1152, bias=True)
          (proj_drop): Dropout(p=0.0, inplace=False)
        )
        (ls1): Identity()
        (drop_path1): Identity()
        (norm2): LayerNorm((1152,), eps=1e-06, elementwise_affine=True)
        (mlp): Mlp(
          (fc1): Linear(in_features=1152, out_features=4304, bias=True)
          (act): GELU(approximate='none')
          (drop1): Dropout(p=0.0, inplace=False)
          (norm): Identity()
          (fc2): Linear(in_features=4304, out_features=1152, bias=True)
          (drop2): Dropout(p=0.0, inplace=False)
        )
        (ls2): Identity()
        (drop_path2): Identity()
      )
      (14): Block(
        (norm1): LayerNorm((1152,), eps=1e-06, elementwise_affine=True)
        (attn): Attention(
          (qkv): Linear(in_features=1152, out_features=3456, bias=True)
          (q_norm): Identity()
          (k_norm): Identity()
          (attn_drop): Dropout(p=0.0, inplace=False)
          (proj): Linear(in_features=1152, out_features=1152, bias=True)
          (proj_drop): Dropout(p=0.0, inplace=False)
        )
        (ls1): Identity()
        (drop_path1): Identity()
        (norm2): LayerNorm((1152,), eps=1e-06, elementwise_affine=True)
        (mlp): Mlp(
          (fc1): Linear(in_features=1152, out_features=4304, bias=True)
          (act): GELU(approximate='none')
          (drop1): Dropout(p=0.0, inplace=False)
          (norm): Identity()
          (fc2): Linear(in_features=4304, out_features=1152, bias=True)
          (drop2): Dropout(p=0.0, inplace=False)
        )
        (ls2): Identity()
        (drop_path2): Identity()
      )
      (15): Block(
        (norm1): LayerNorm((1152,), eps=1e-06, elementwise_affine=True)
        (attn): Attention(
          (qkv): Linear(in_features=1152, out_features=3456, bias=True)
          (q_norm): Identity()
          (k_norm): Identity()
          (attn_drop): Dropout(p=0.0, inplace=False)
          (proj): Linear(in_features=1152, out_features=1152, bias=True)
          (proj_drop): Dropout(p=0.0, inplace=False)
        )
        (ls1): Identity()
        (drop_path1): Identity()
        (norm2): LayerNorm((1152,), eps=1e-06, elementwise_affine=True)
        (mlp): Mlp(
          (fc1): Linear(in_features=1152, out_features=4304, bias=True)
          (act): GELU(approximate='none')
          (drop1): Dropout(p=0.0, inplace=False)
          (norm): Identity()
          (fc2): Linear(in_features=4304, out_features=1152, bias=True)
          (drop2): Dropout(p=0.0, inplace=False)
        )
        (ls2): Identity()
        (drop_path2): Identity()
      )
      (16): Block(
        (norm1): LayerNorm((1152,), eps=1e-06, elementwise_affine=True)
        (attn): Attention(
          (qkv): Linear(in_features=1152, out_features=3456, bias=True)
          (q_norm): Identity()
          (k_norm): Identity()
          (attn_drop): Dropout(p=0.0, inplace=False)
          (proj): Linear(in_features=1152, out_features=1152, bias=True)
          (proj_drop): Dropout(p=0.0, inplace=False)
        )
        (ls1): Identity()
        (drop_path1): Identity()
        (norm2): LayerNorm((1152,), eps=1e-06, elementwise_affine=True)
        (mlp): Mlp(
          (fc1): Linear(in_features=1152, out_features=4304, bias=True)
          (act): GELU(approximate='none')
          (drop1): Dropout(p=0.0, inplace=False)
          (norm): Identity()
          (fc2): Linear(in_features=4304, out_features=1152, bias=True)
          (drop2): Dropout(p=0.0, inplace=False)
        )
        (ls2): Identity()
        (drop_path2): Identity()
      )
      (17): Block(
        (norm1): LayerNorm((1152,), eps=1e-06, elementwise_affine=True)
        (attn): Attention(
          (qkv): Linear(in_features=1152, out_features=3456, bias=True)
          (q_norm): Identity()
          (k_norm): Identity()
          (attn_drop): Dropout(p=0.0, inplace=False)
          (proj): Linear(in_features=1152, out_features=1152, bias=True)
          (proj_drop): Dropout(p=0.0, inplace=False)
        )
        (ls1): Identity()
        (drop_path1): Identity()
        (norm2): LayerNorm((1152,), eps=1e-06, elementwise_affine=True)
        (mlp): Mlp(
          (fc1): Linear(in_features=1152, out_features=4304, bias=True)
          (act): GELU(approximate='none')
          (drop1): Dropout(p=0.0, inplace=False)
          (norm): Identity()
          (fc2): Linear(in_features=4304, out_features=1152, bias=True)
          (drop2): Dropout(p=0.0, inplace=False)
        )
        (ls2): Identity()
        (drop_path2): Identity()
      )
      (18): Block(
        (norm1): LayerNorm((1152,), eps=1e-06, elementwise_affine=True)
        (attn): Attention(
          (qkv): Linear(in_features=1152, out_features=3456, bias=True)
          (q_norm): Identity()
          (k_norm): Identity()
          (attn_drop): Dropout(p=0.0, inplace=False)
          (proj): Linear(in_features=1152, out_features=1152, bias=True)
          (proj_drop): Dropout(p=0.0, inplace=False)
        )
        (ls1): Identity()
        (drop_path1): Identity()
        (norm2): LayerNorm((1152,), eps=1e-06, elementwise_affine=True)
        (mlp): Mlp(
          (fc1): Linear(in_features=1152, out_features=4304, bias=True)
          (act): GELU(approximate='none')
          (drop1): Dropout(p=0.0, inplace=False)
          (norm): Identity()
          (fc2): Linear(in_features=4304, out_features=1152, bias=True)
          (drop2): Dropout(p=0.0, inplace=False)
        )
        (ls2): Identity()
        (drop_path2): Identity()
      )
      (19): Block(
        (norm1): LayerNorm((1152,), eps=1e-06, elementwise_affine=True)
        (attn): Attention(
          (qkv): Linear(in_features=1152, out_features=3456, bias=True)
          (q_norm): Identity()
          (k_norm): Identity()
          (attn_drop): Dropout(p=0.0, inplace=False)
          (proj): Linear(in_features=1152, out_features=1152, bias=True)
          (proj_drop): Dropout(p=0.0, inplace=False)
        )
        (ls1): Identity()
        (drop_path1): Identity()
        (norm2): LayerNorm((1152,), eps=1e-06, elementwise_affine=True)
        (mlp): Mlp(
          (fc1): Linear(in_features=1152, out_features=4304, bias=True)
          (act): GELU(approximate='none')
          (drop1): Dropout(p=0.0, inplace=False)
          (norm): Identity()
          (fc2): Linear(in_features=4304, out_features=1152, bias=True)
          (drop2): Dropout(p=0.0, inplace=False)
        )
        (ls2): Identity()
        (drop_path2): Identity()
      )
      (20): Block(
        (norm1): LayerNorm((1152,), eps=1e-06, elementwise_affine=True)
        (attn): Attention(
          (qkv): Linear(in_features=1152, out_features=3456, bias=True)
          (q_norm): Identity()
          (k_norm): Identity()
          (attn_drop): Dropout(p=0.0, inplace=False)
          (proj): Linear(in_features=1152, out_features=1152, bias=True)
          (proj_drop): Dropout(p=0.0, inplace=False)
        )
        (ls1): Identity()
        (drop_path1): Identity()
        (norm2): LayerNorm((1152,), eps=1e-06, elementwise_affine=True)
        (mlp): Mlp(
          (fc1): Linear(in_features=1152, out_features=4304, bias=True)
          (act): GELU(approximate='none')
          (drop1): Dropout(p=0.0, inplace=False)
          (norm): Identity()
          (fc2): Linear(in_features=4304, out_features=1152, bias=True)
          (drop2): Dropout(p=0.0, inplace=False)
        )
        (ls2): Identity()
        (drop_path2): Identity()
      )
      (21): Block(
        (norm1): LayerNorm((1152,), eps=1e-06, elementwise_affine=True)
        (attn): Attention(
          (qkv): Linear(in_features=1152, out_features=3456, bias=True)
          (q_norm): Identity()
          (k_norm): Identity()
          (attn_drop): Dropout(p=0.0, inplace=False)
          (proj): Linear(in_features=1152, out_features=1152, bias=True)
          (proj_drop): Dropout(p=0.0, inplace=False)
        )
        (ls1): Identity()
        (drop_path1): Identity()
        (norm2): LayerNorm((1152,), eps=1e-06, elementwise_affine=True)
        (mlp): Mlp(
          (fc1): Linear(in_features=1152, out_features=4304, bias=True)
          (act): GELU(approximate='none')
          (drop1): Dropout(p=0.0, inplace=False)
          (norm): Identity()
          (fc2): Linear(in_features=4304, out_features=1152, bias=True)
          (drop2): Dropout(p=0.0, inplace=False)
        )
        (ls2): Identity()
        (drop_path2): Identity()
      )
      (22): Block(
        (norm1): LayerNorm((1152,), eps=1e-06, elementwise_affine=True)
        (attn): Attention(
          (qkv): Linear(in_features=1152, out_features=3456, bias=True)
          (q_norm): Identity()
          (k_norm): Identity()
          (attn_drop): Dropout(p=0.0, inplace=False)
          (proj): Linear(in_features=1152, out_features=1152, bias=True)
          (proj_drop): Dropout(p=0.0, inplace=False)
        )
        (ls1): Identity()
        (drop_path1): Identity()
        (norm2): LayerNorm((1152,), eps=1e-06, elementwise_affine=True)
        (mlp): Mlp(
          (fc1): Linear(in_features=1152, out_features=4304, bias=True)
          (act): GELU(approximate='none')
          (drop1): Dropout(p=0.0, inplace=False)
          (norm): Identity()
          (fc2): Linear(in_features=4304, out_features=1152, bias=True)
          (drop2): Dropout(p=0.0, inplace=False)
        )
        (ls2): Identity()
        (drop_path2): Identity()
      )
      (23): Block(
        (norm1): LayerNorm((1152,), eps=1e-06, elementwise_affine=True)
        (attn): Attention(
          (qkv): Linear(in_features=1152, out_features=3456, bias=True)
          (q_norm): Identity()
          (k_norm): Identity()
          (attn_drop): Dropout(p=0.0, inplace=False)
          (proj): Linear(in_features=1152, out_features=1152, bias=True)
          (proj_drop): Dropout(p=0.0, inplace=False)
        )
        (ls1): Identity()
        (drop_path1): Identity()
        (norm2): LayerNorm((1152,), eps=1e-06, elementwise_affine=True)
        (mlp): Mlp(
          (fc1): Linear(in_features=1152, out_features=4304, bias=True)
          (act): GELU(approximate='none')
          (drop1): Dropout(p=0.0, inplace=False)
          (norm): Identity()
          (fc2): Linear(in_features=4304, out_features=1152, bias=True)
          (drop2): Dropout(p=0.0, inplace=False)
        )
        (ls2): Identity()
        (drop_path2): Identity()
      )
      (24): Block(
        (norm1): LayerNorm((1152,), eps=1e-06, elementwise_affine=True)
        (attn): Attention(
          (qkv): Linear(in_features=1152, out_features=3456, bias=True)
          (q_norm): Identity()
          (k_norm): Identity()
          (attn_drop): Dropout(p=0.0, inplace=False)
          (proj): Linear(in_features=1152, out_features=1152, bias=True)
          (proj_drop): Dropout(p=0.0, inplace=False)
        )
        (ls1): Identity()
        (drop_path1): Identity()
        (norm2): LayerNorm((1152,), eps=1e-06, elementwise_affine=True)
        (mlp): Mlp(
          (fc1): Linear(in_features=1152, out_features=4304, bias=True)
          (act): GELU(approximate='none')
          (drop1): Dropout(p=0.0, inplace=False)
          (norm): Identity()
          (fc2): Linear(in_features=4304, out_features=1152, bias=True)
          (drop2): Dropout(p=0.0, inplace=False)
        )
        (ls2): Identity()
        (drop_path2): Identity()
      )
      (25): Block(
        (norm1): LayerNorm((1152,), eps=1e-06, elementwise_affine=True)
        (attn): Attention(
          (qkv): Linear(in_features=1152, out_features=3456, bias=True)
          (q_norm): Identity()
          (k_norm): Identity()
          (attn_drop): Dropout(p=0.0, inplace=False)
          (proj): Linear(in_features=1152, out_features=1152, bias=True)
          (proj_drop): Dropout(p=0.0, inplace=False)
        )
        (ls1): Identity()
        (drop_path1): Identity()
        (norm2): LayerNorm((1152,), eps=1e-06, elementwise_affine=True)
        (mlp): Mlp(
          (fc1): Linear(in_features=1152, out_features=4304, bias=True)
          (act): GELU(approximate='none')
          (drop1): Dropout(p=0.0, inplace=False)
          (norm): Identity()
          (fc2): Linear(in_features=4304, out_features=1152, bias=True)
          (drop2): Dropout(p=0.0, inplace=False)
        )
        (ls2): Identity()
        (drop_path2): Identity()
      )
      (26): Block(
        (norm1): LayerNorm((1152,), eps=1e-06, elementwise_affine=True)
        (attn): Attention(
          (qkv): Linear(in_features=1152, out_features=3456, bias=True)
          (q_norm): Identity()
          (k_norm): Identity()
          (attn_drop): Dropout(p=0.0, inplace=False)
          (proj): Linear(in_features=1152, out_features=1152, bias=True)
          (proj_drop): Dropout(p=0.0, inplace=False)
        )
        (ls1): Identity()
        (drop_path1): Identity()
        (norm2): LayerNorm((1152,), eps=1e-06, elementwise_affine=True)
        (mlp): Mlp(
          (fc1): Linear(in_features=1152, out_features=4304, bias=True)
          (act): GELU(approximate='none')
          (drop1): Dropout(p=0.0, inplace=False)
          (norm): Identity()
          (fc2): Linear(in_features=4304, out_features=1152, bias=True)
          (drop2): Dropout(p=0.0, inplace=False)
        )
        (ls2): Identity()
        (drop_path2): Identity()
      )
    )
    (norm): LayerNorm((1152,), eps=1e-06, elementwise_affine=True)
    (attn_pool): AttentionPoolLatent(
      (q): Linear(in_features=1152, out_features=1152, bias=True)
      (kv): Linear(in_features=1152, out_features=2304, bias=True)
      (q_norm): Identity()
      (k_norm): Identity()
      (proj): Linear(in_features=1152, out_features=1152, bias=True)
      (proj_drop): Dropout(p=0.0, inplace=False)
      (norm): LayerNorm((1152,), eps=1e-06, elementwise_affine=True)
      (mlp): Mlp(
        (fc1): Linear(in_features=1152, out_features=4304, bias=True)
        (act): GELU(approximate='none')
        (drop1): Dropout(p=0.0, inplace=False)
        (norm): Identity()
        (fc2): Linear(in_features=4304, out_features=1152, bias=True)
        (drop2): Dropout(p=0.0, inplace=False)
      )
    )
    (fc_norm): Identity()
    (head_drop): Dropout(p=0.0, inplace=False)
    (head): Identity()
  )
)
vision_backbone.dino_featurizer: VisionTransformer(
  (patch_embed): PatchEmbed(
    (proj): Conv2d(3, 1024, kernel_size=(14, 14), stride=(14, 14))
    (norm): Identity()
  )
  (pos_drop): Dropout(p=0.0, inplace=False)
  (patch_drop): Identity()
  (norm_pre): Identity()
  (blocks): Sequential(
    (0): Block(
      (norm1): LayerNorm((1024,), eps=1e-06, elementwise_affine=True)
      (attn): Attention(
        (qkv): Linear(in_features=1024, out_features=3072, bias=True)
        (q_norm): Identity()
        (k_norm): Identity()
        (attn_drop): Dropout(p=0.0, inplace=False)
        (proj): Linear(in_features=1024, out_features=1024, bias=True)
        (proj_drop): Dropout(p=0.0, inplace=False)
      )
      (ls1): LayerScale()
      (drop_path1): Identity()
      (norm2): LayerNorm((1024,), eps=1e-06, elementwise_affine=True)
      (mlp): Mlp(
        (fc1): Linear(in_features=1024, out_features=4096, bias=True)
        (act): GELU(approximate='none')
        (drop1): Dropout(p=0.0, inplace=False)
        (norm): Identity()
        (fc2): Linear(in_features=4096, out_features=1024, bias=True)
        (drop2): Dropout(p=0.0, inplace=False)
      )
      (ls2): LayerScale()
      (drop_path2): Identity()
    )
    (1): Block(
      (norm1): LayerNorm((1024,), eps=1e-06, elementwise_affine=True)
      (attn): Attention(
        (qkv): Linear(in_features=1024, out_features=3072, bias=True)
        (q_norm): Identity()
        (k_norm): Identity()
        (attn_drop): Dropout(p=0.0, inplace=False)
        (proj): Linear(in_features=1024, out_features=1024, bias=True)
        (proj_drop): Dropout(p=0.0, inplace=False)
      )
      (ls1): LayerScale()
      (drop_path1): Identity()
      (norm2): LayerNorm((1024,), eps=1e-06, elementwise_affine=True)
      (mlp): Mlp(
        (fc1): Linear(in_features=1024, out_features=4096, bias=True)
        (act): GELU(approximate='none')
        (drop1): Dropout(p=0.0, inplace=False)
        (norm): Identity()
        (fc2): Linear(in_features=4096, out_features=1024, bias=True)
        (drop2): Dropout(p=0.0, inplace=False)
      )
      (ls2): LayerScale()
      (drop_path2): Identity()
    )
    (2): Block(
      (norm1): LayerNorm((1024,), eps=1e-06, elementwise_affine=True)
      (attn): Attention(
        (qkv): Linear(in_features=1024, out_features=3072, bias=True)
        (q_norm): Identity()
        (k_norm): Identity()
        (attn_drop): Dropout(p=0.0, inplace=False)
        (proj): Linear(in_features=1024, out_features=1024, bias=True)
        (proj_drop): Dropout(p=0.0, inplace=False)
      )
      (ls1): LayerScale()
      (drop_path1): Identity()
      (norm2): LayerNorm((1024,), eps=1e-06, elementwise_affine=True)
      (mlp): Mlp(
        (fc1): Linear(in_features=1024, out_features=4096, bias=True)
        (act): GELU(approximate='none')
        (drop1): Dropout(p=0.0, inplace=False)
        (norm): Identity()
        (fc2): Linear(in_features=4096, out_features=1024, bias=True)
        (drop2): Dropout(p=0.0, inplace=False)
      )
      (ls2): LayerScale()
      (drop_path2): Identity()
    )
    (3): Block(
      (norm1): LayerNorm((1024,), eps=1e-06, elementwise_affine=True)
      (attn): Attention(
        (qkv): Linear(in_features=1024, out_features=3072, bias=True)
        (q_norm): Identity()
        (k_norm): Identity()
        (attn_drop): Dropout(p=0.0, inplace=False)
        (proj): Linear(in_features=1024, out_features=1024, bias=True)
        (proj_drop): Dropout(p=0.0, inplace=False)
      )
      (ls1): LayerScale()
      (drop_path1): Identity()
      (norm2): LayerNorm((1024,), eps=1e-06, elementwise_affine=True)
      (mlp): Mlp(
        (fc1): Linear(in_features=1024, out_features=4096, bias=True)
        (act): GELU(approximate='none')
        (drop1): Dropout(p=0.0, inplace=False)
        (norm): Identity()
        (fc2): Linear(in_features=4096, out_features=1024, bias=True)
        (drop2): Dropout(p=0.0, inplace=False)
      )
      (ls2): LayerScale()
      (drop_path2): Identity()
    )
    (4): Block(
      (norm1): LayerNorm((1024,), eps=1e-06, elementwise_affine=True)
      (attn): Attention(
        (qkv): Linear(in_features=1024, out_features=3072, bias=True)
        (q_norm): Identity()
        (k_norm): Identity()
        (attn_drop): Dropout(p=0.0, inplace=False)
        (proj): Linear(in_features=1024, out_features=1024, bias=True)
        (proj_drop): Dropout(p=0.0, inplace=False)
      )
      (ls1): LayerScale()
      (drop_path1): Identity()
      (norm2): LayerNorm((1024,), eps=1e-06, elementwise_affine=True)
      (mlp): Mlp(
        (fc1): Linear(in_features=1024, out_features=4096, bias=True)
        (act): GELU(approximate='none')
        (drop1): Dropout(p=0.0, inplace=False)
        (norm): Identity()
        (fc2): Linear(in_features=4096, out_features=1024, bias=True)
        (drop2): Dropout(p=0.0, inplace=False)
      )
      (ls2): LayerScale()
      (drop_path2): Identity()
    )
    (5): Block(
      (norm1): LayerNorm((1024,), eps=1e-06, elementwise_affine=True)
      (attn): Attention(
        (qkv): Linear(in_features=1024, out_features=3072, bias=True)
        (q_norm): Identity()
        (k_norm): Identity()
        (attn_drop): Dropout(p=0.0, inplace=False)
        (proj): Linear(in_features=1024, out_features=1024, bias=True)
        (proj_drop): Dropout(p=0.0, inplace=False)
      )
      (ls1): LayerScale()
      (drop_path1): Identity()
      (norm2): LayerNorm((1024,), eps=1e-06, elementwise_affine=True)
      (mlp): Mlp(
        (fc1): Linear(in_features=1024, out_features=4096, bias=True)
        (act): GELU(approximate='none')
        (drop1): Dropout(p=0.0, inplace=False)
        (norm): Identity()
        (fc2): Linear(in_features=4096, out_features=1024, bias=True)
        (drop2): Dropout(p=0.0, inplace=False)
      )
      (ls2): LayerScale()
      (drop_path2): Identity()
    )
    (6): Block(
      (norm1): LayerNorm((1024,), eps=1e-06, elementwise_affine=True)
      (attn): Attention(
        (qkv): Linear(in_features=1024, out_features=3072, bias=True)
        (q_norm): Identity()
        (k_norm): Identity()
        (attn_drop): Dropout(p=0.0, inplace=False)
        (proj): Linear(in_features=1024, out_features=1024, bias=True)
        (proj_drop): Dropout(p=0.0, inplace=False)
      )
      (ls1): LayerScale()
      (drop_path1): Identity()
      (norm2): LayerNorm((1024,), eps=1e-06, elementwise_affine=True)
      (mlp): Mlp(
        (fc1): Linear(in_features=1024, out_features=4096, bias=True)
        (act): GELU(approximate='none')
        (drop1): Dropout(p=0.0, inplace=False)
        (norm): Identity()
        (fc2): Linear(in_features=4096, out_features=1024, bias=True)
        (drop2): Dropout(p=0.0, inplace=False)
      )
      (ls2): LayerScale()
      (drop_path2): Identity()
    )
    (7): Block(
      (norm1): LayerNorm((1024,), eps=1e-06, elementwise_affine=True)
      (attn): Attention(
        (qkv): Linear(in_features=1024, out_features=3072, bias=True)
        (q_norm): Identity()
        (k_norm): Identity()
        (attn_drop): Dropout(p=0.0, inplace=False)
        (proj): Linear(in_features=1024, out_features=1024, bias=True)
        (proj_drop): Dropout(p=0.0, inplace=False)
      )
      (ls1): LayerScale()
      (drop_path1): Identity()
      (norm2): LayerNorm((1024,), eps=1e-06, elementwise_affine=True)
      (mlp): Mlp(
        (fc1): Linear(in_features=1024, out_features=4096, bias=True)
        (act): GELU(approximate='none')
        (drop1): Dropout(p=0.0, inplace=False)
        (norm): Identity()
        (fc2): Linear(in_features=4096, out_features=1024, bias=True)
        (drop2): Dropout(p=0.0, inplace=False)
      )
      (ls2): LayerScale()
      (drop_path2): Identity()
    )
    (8): Block(
      (norm1): LayerNorm((1024,), eps=1e-06, elementwise_affine=True)
      (attn): Attention(
        (qkv): Linear(in_features=1024, out_features=3072, bias=True)
        (q_norm): Identity()
        (k_norm): Identity()
        (attn_drop): Dropout(p=0.0, inplace=False)
        (proj): Linear(in_features=1024, out_features=1024, bias=True)
        (proj_drop): Dropout(p=0.0, inplace=False)
      )
      (ls1): LayerScale()
      (drop_path1): Identity()
      (norm2): LayerNorm((1024,), eps=1e-06, elementwise_affine=True)
      (mlp): Mlp(
        (fc1): Linear(in_features=1024, out_features=4096, bias=True)
        (act): GELU(approximate='none')
        (drop1): Dropout(p=0.0, inplace=False)
        (norm): Identity()
        (fc2): Linear(in_features=4096, out_features=1024, bias=True)
        (drop2): Dropout(p=0.0, inplace=False)
      )
      (ls2): LayerScale()
      (drop_path2): Identity()
    )
    (9): Block(
      (norm1): LayerNorm((1024,), eps=1e-06, elementwise_affine=True)
      (attn): Attention(
        (qkv): Linear(in_features=1024, out_features=3072, bias=True)
        (q_norm): Identity()
        (k_norm): Identity()
        (attn_drop): Dropout(p=0.0, inplace=False)
        (proj): Linear(in_features=1024, out_features=1024, bias=True)
        (proj_drop): Dropout(p=0.0, inplace=False)
      )
      (ls1): LayerScale()
      (drop_path1): Identity()
      (norm2): LayerNorm((1024,), eps=1e-06, elementwise_affine=True)
      (mlp): Mlp(
        (fc1): Linear(in_features=1024, out_features=4096, bias=True)
        (act): GELU(approximate='none')
        (drop1): Dropout(p=0.0, inplace=False)
        (norm): Identity()
        (fc2): Linear(in_features=4096, out_features=1024, bias=True)
        (drop2): Dropout(p=0.0, inplace=False)
      )
      (ls2): LayerScale()
      (drop_path2): Identity()
    )
    (10): Block(
      (norm1): LayerNorm((1024,), eps=1e-06, elementwise_affine=True)
      (attn): Attention(
        (qkv): Linear(in_features=1024, out_features=3072, bias=True)
        (q_norm): Identity()
        (k_norm): Identity()
        (attn_drop): Dropout(p=0.0, inplace=False)
        (proj): Linear(in_features=1024, out_features=1024, bias=True)
        (proj_drop): Dropout(p=0.0, inplace=False)
      )
      (ls1): LayerScale()
      (drop_path1): Identity()
      (norm2): LayerNorm((1024,), eps=1e-06, elementwise_affine=True)
      (mlp): Mlp(
        (fc1): Linear(in_features=1024, out_features=4096, bias=True)
        (act): GELU(approximate='none')
        (drop1): Dropout(p=0.0, inplace=False)
        (norm): Identity()
        (fc2): Linear(in_features=4096, out_features=1024, bias=True)
        (drop2): Dropout(p=0.0, inplace=False)
      )
      (ls2): LayerScale()
      (drop_path2): Identity()
    )
    (11): Block(
      (norm1): LayerNorm((1024,), eps=1e-06, elementwise_affine=True)
      (attn): Attention(
        (qkv): Linear(in_features=1024, out_features=3072, bias=True)
        (q_norm): Identity()
        (k_norm): Identity()
        (attn_drop): Dropout(p=0.0, inplace=False)
        (proj): Linear(in_features=1024, out_features=1024, bias=True)
        (proj_drop): Dropout(p=0.0, inplace=False)
      )
      (ls1): LayerScale()
      (drop_path1): Identity()
      (norm2): LayerNorm((1024,), eps=1e-06, elementwise_affine=True)
      (mlp): Mlp(
        (fc1): Linear(in_features=1024, out_features=4096, bias=True)
        (act): GELU(approximate='none')
        (drop1): Dropout(p=0.0, inplace=False)
        (norm): Identity()
        (fc2): Linear(in_features=4096, out_features=1024, bias=True)
        (drop2): Dropout(p=0.0, inplace=False)
      )
      (ls2): LayerScale()
      (drop_path2): Identity()
    )
    (12): Block(
      (norm1): LayerNorm((1024,), eps=1e-06, elementwise_affine=True)
      (attn): Attention(
        (qkv): Linear(in_features=1024, out_features=3072, bias=True)
        (q_norm): Identity()
        (k_norm): Identity()
        (attn_drop): Dropout(p=0.0, inplace=False)
        (proj): Linear(in_features=1024, out_features=1024, bias=True)
        (proj_drop): Dropout(p=0.0, inplace=False)
      )
      (ls1): LayerScale()
      (drop_path1): Identity()
      (norm2): LayerNorm((1024,), eps=1e-06, elementwise_affine=True)
      (mlp): Mlp(
        (fc1): Linear(in_features=1024, out_features=4096, bias=True)
        (act): GELU(approximate='none')
        (drop1): Dropout(p=0.0, inplace=False)
        (norm): Identity()
        (fc2): Linear(in_features=4096, out_features=1024, bias=True)
        (drop2): Dropout(p=0.0, inplace=False)
      )
      (ls2): LayerScale()
      (drop_path2): Identity()
    )
    (13): Block(
      (norm1): LayerNorm((1024,), eps=1e-06, elementwise_affine=True)
      (attn): Attention(
        (qkv): Linear(in_features=1024, out_features=3072, bias=True)
        (q_norm): Identity()
        (k_norm): Identity()
        (attn_drop): Dropout(p=0.0, inplace=False)
        (proj): Linear(in_features=1024, out_features=1024, bias=True)
        (proj_drop): Dropout(p=0.0, inplace=False)
      )
      (ls1): LayerScale()
      (drop_path1): Identity()
      (norm2): LayerNorm((1024,), eps=1e-06, elementwise_affine=True)
      (mlp): Mlp(
        (fc1): Linear(in_features=1024, out_features=4096, bias=True)
        (act): GELU(approximate='none')
        (drop1): Dropout(p=0.0, inplace=False)
        (norm): Identity()
        (fc2): Linear(in_features=4096, out_features=1024, bias=True)
        (drop2): Dropout(p=0.0, inplace=False)
      )
      (ls2): LayerScale()
      (drop_path2): Identity()
    )
    (14): Block(
      (norm1): LayerNorm((1024,), eps=1e-06, elementwise_affine=True)
      (attn): Attention(
        (qkv): Linear(in_features=1024, out_features=3072, bias=True)
        (q_norm): Identity()
        (k_norm): Identity()
        (attn_drop): Dropout(p=0.0, inplace=False)
        (proj): Linear(in_features=1024, out_features=1024, bias=True)
        (proj_drop): Dropout(p=0.0, inplace=False)
      )
      (ls1): LayerScale()
      (drop_path1): Identity()
      (norm2): LayerNorm((1024,), eps=1e-06, elementwise_affine=True)
      (mlp): Mlp(
        (fc1): Linear(in_features=1024, out_features=4096, bias=True)
        (act): GELU(approximate='none')
        (drop1): Dropout(p=0.0, inplace=False)
        (norm): Identity()
        (fc2): Linear(in_features=4096, out_features=1024, bias=True)
        (drop2): Dropout(p=0.0, inplace=False)
      )
      (ls2): LayerScale()
      (drop_path2): Identity()
    )
    (15): Block(
      (norm1): LayerNorm((1024,), eps=1e-06, elementwise_affine=True)
      (attn): Attention(
        (qkv): Linear(in_features=1024, out_features=3072, bias=True)
        (q_norm): Identity()
        (k_norm): Identity()
        (attn_drop): Dropout(p=0.0, inplace=False)
        (proj): Linear(in_features=1024, out_features=1024, bias=True)
        (proj_drop): Dropout(p=0.0, inplace=False)
      )
      (ls1): LayerScale()
      (drop_path1): Identity()
      (norm2): LayerNorm((1024,), eps=1e-06, elementwise_affine=True)
      (mlp): Mlp(
        (fc1): Linear(in_features=1024, out_features=4096, bias=True)
        (act): GELU(approximate='none')
        (drop1): Dropout(p=0.0, inplace=False)
        (norm): Identity()
        (fc2): Linear(in_features=4096, out_features=1024, bias=True)
        (drop2): Dropout(p=0.0, inplace=False)
      )
      (ls2): LayerScale()
      (drop_path2): Identity()
    )
    (16): Block(
      (norm1): LayerNorm((1024,), eps=1e-06, elementwise_affine=True)
      (attn): Attention(
        (qkv): Linear(in_features=1024, out_features=3072, bias=True)
        (q_norm): Identity()
        (k_norm): Identity()
        (attn_drop): Dropout(p=0.0, inplace=False)
        (proj): Linear(in_features=1024, out_features=1024, bias=True)
        (proj_drop): Dropout(p=0.0, inplace=False)
      )
      (ls1): LayerScale()
      (drop_path1): Identity()
      (norm2): LayerNorm((1024,), eps=1e-06, elementwise_affine=True)
      (mlp): Mlp(
        (fc1): Linear(in_features=1024, out_features=4096, bias=True)
        (act): GELU(approximate='none')
        (drop1): Dropout(p=0.0, inplace=False)
        (norm): Identity()
        (fc2): Linear(in_features=4096, out_features=1024, bias=True)
        (drop2): Dropout(p=0.0, inplace=False)
      )
      (ls2): LayerScale()
      (drop_path2): Identity()
    )
    (17): Block(
      (norm1): LayerNorm((1024,), eps=1e-06, elementwise_affine=True)
      (attn): Attention(
        (qkv): Linear(in_features=1024, out_features=3072, bias=True)
        (q_norm): Identity()
        (k_norm): Identity()
        (attn_drop): Dropout(p=0.0, inplace=False)
        (proj): Linear(in_features=1024, out_features=1024, bias=True)
        (proj_drop): Dropout(p=0.0, inplace=False)
      )
      (ls1): LayerScale()
      (drop_path1): Identity()
      (norm2): LayerNorm((1024,), eps=1e-06, elementwise_affine=True)
      (mlp): Mlp(
        (fc1): Linear(in_features=1024, out_features=4096, bias=True)
        (act): GELU(approximate='none')
        (drop1): Dropout(p=0.0, inplace=False)
        (norm): Identity()
        (fc2): Linear(in_features=4096, out_features=1024, bias=True)
        (drop2): Dropout(p=0.0, inplace=False)
      )
      (ls2): LayerScale()
      (drop_path2): Identity()
    )
    (18): Block(
      (norm1): LayerNorm((1024,), eps=1e-06, elementwise_affine=True)
      (attn): Attention(
        (qkv): Linear(in_features=1024, out_features=3072, bias=True)
        (q_norm): Identity()
        (k_norm): Identity()
        (attn_drop): Dropout(p=0.0, inplace=False)
        (proj): Linear(in_features=1024, out_features=1024, bias=True)
        (proj_drop): Dropout(p=0.0, inplace=False)
      )
      (ls1): LayerScale()
      (drop_path1): Identity()
      (norm2): LayerNorm((1024,), eps=1e-06, elementwise_affine=True)
      (mlp): Mlp(
        (fc1): Linear(in_features=1024, out_features=4096, bias=True)
        (act): GELU(approximate='none')
        (drop1): Dropout(p=0.0, inplace=False)
        (norm): Identity()
        (fc2): Linear(in_features=4096, out_features=1024, bias=True)
        (drop2): Dropout(p=0.0, inplace=False)
      )
      (ls2): LayerScale()
      (drop_path2): Identity()
    )
    (19): Block(
      (norm1): LayerNorm((1024,), eps=1e-06, elementwise_affine=True)
      (attn): Attention(
        (qkv): Linear(in_features=1024, out_features=3072, bias=True)
        (q_norm): Identity()
        (k_norm): Identity()
        (attn_drop): Dropout(p=0.0, inplace=False)
        (proj): Linear(in_features=1024, out_features=1024, bias=True)
        (proj_drop): Dropout(p=0.0, inplace=False)
      )
      (ls1): LayerScale()
      (drop_path1): Identity()
      (norm2): LayerNorm((1024,), eps=1e-06, elementwise_affine=True)
      (mlp): Mlp(
        (fc1): Linear(in_features=1024, out_features=4096, bias=True)
        (act): GELU(approximate='none')
        (drop1): Dropout(p=0.0, inplace=False)
        (norm): Identity()
        (fc2): Linear(in_features=4096, out_features=1024, bias=True)
        (drop2): Dropout(p=0.0, inplace=False)
      )
      (ls2): LayerScale()
      (drop_path2): Identity()
    )
    (20): Block(
      (norm1): LayerNorm((1024,), eps=1e-06, elementwise_affine=True)
      (attn): Attention(
        (qkv): Linear(in_features=1024, out_features=3072, bias=True)
        (q_norm): Identity()
        (k_norm): Identity()
        (attn_drop): Dropout(p=0.0, inplace=False)
        (proj): Linear(in_features=1024, out_features=1024, bias=True)
        (proj_drop): Dropout(p=0.0, inplace=False)
      )
      (ls1): LayerScale()
      (drop_path1): Identity()
      (norm2): LayerNorm((1024,), eps=1e-06, elementwise_affine=True)
      (mlp): Mlp(
        (fc1): Linear(in_features=1024, out_features=4096, bias=True)
        (act): GELU(approximate='none')
        (drop1): Dropout(p=0.0, inplace=False)
        (norm): Identity()
        (fc2): Linear(in_features=4096, out_features=1024, bias=True)
        (drop2): Dropout(p=0.0, inplace=False)
      )
      (ls2): LayerScale()
      (drop_path2): Identity()
    )
    (21): Block(
      (norm1): LayerNorm((1024,), eps=1e-06, elementwise_affine=True)
      (attn): Attention(
        (qkv): Linear(in_features=1024, out_features=3072, bias=True)
        (q_norm): Identity()
        (k_norm): Identity()
        (attn_drop): Dropout(p=0.0, inplace=False)
        (proj): Linear(in_features=1024, out_features=1024, bias=True)
        (proj_drop): Dropout(p=0.0, inplace=False)
      )
      (ls1): LayerScale()
      (drop_path1): Identity()
      (norm2): LayerNorm((1024,), eps=1e-06, elementwise_affine=True)
      (mlp): Mlp(
        (fc1): Linear(in_features=1024, out_features=4096, bias=True)
        (act): GELU(approximate='none')
        (drop1): Dropout(p=0.0, inplace=False)
        (norm): Identity()
        (fc2): Linear(in_features=4096, out_features=1024, bias=True)
        (drop2): Dropout(p=0.0, inplace=False)
      )
      (ls2): LayerScale()
      (drop_path2): Identity()
    )
    (22): Block(
      (norm1): LayerNorm((1024,), eps=1e-06, elementwise_affine=True)
      (attn): Attention(
        (qkv): Linear(in_features=1024, out_features=3072, bias=True)
        (q_norm): Identity()
        (k_norm): Identity()
        (attn_drop): Dropout(p=0.0, inplace=False)
        (proj): Linear(in_features=1024, out_features=1024, bias=True)
        (proj_drop): Dropout(p=0.0, inplace=False)
      )
      (ls1): LayerScale()
      (drop_path1): Identity()
      (norm2): LayerNorm((1024,), eps=1e-06, elementwise_affine=True)
      (mlp): Mlp(
        (fc1): Linear(in_features=1024, out_features=4096, bias=True)
        (act): GELU(approximate='none')
        (drop1): Dropout(p=0.0, inplace=False)
        (norm): Identity()
        (fc2): Linear(in_features=4096, out_features=1024, bias=True)
        (drop2): Dropout(p=0.0, inplace=False)
      )
      (ls2): LayerScale()
      (drop_path2): Identity()
    )
    (23): Block(
      (norm1): LayerNorm((1024,), eps=1e-06, elementwise_affine=True)
      (attn): Attention(
        (qkv): Linear(in_features=1024, out_features=3072, bias=True)
        (q_norm): Identity()
        (k_norm): Identity()
        (attn_drop): Dropout(p=0.0, inplace=False)
        (proj): Linear(in_features=1024, out_features=1024, bias=True)
        (proj_drop): Dropout(p=0.0, inplace=False)
      )
      (ls1): LayerScale()
      (drop_path1): Identity()
      (norm2): LayerNorm((1024,), eps=1e-06, elementwise_affine=True)
      (mlp): Mlp(
        (fc1): Linear(in_features=1024, out_features=4096, bias=True)
        (act): GELU(approximate='none')
        (drop1): Dropout(p=0.0, inplace=False)
        (norm): Identity()
        (fc2): Linear(in_features=4096, out_features=1024, bias=True)
        (drop2): Dropout(p=0.0, inplace=False)
      )
      (ls2): LayerScale()
      (drop_path2): Identity()
    )
  )
  (norm): LayerNorm((1024,), eps=1e-06, elementwise_affine=True)
  (fc_norm): Identity()
  (head_drop): Dropout(p=0.0, inplace=False)
  (head): Identity()
)
vision_backbone.dino_featurizer.patch_embed: PatchEmbed(
  (proj): Conv2d(3, 1024, kernel_size=(14, 14), stride=(14, 14))
  (norm): Identity()
)
vision_backbone.dino_featurizer.patch_embed.proj: Conv2d(3, 1024, kernel_size=(14, 14), stride=(14, 14))
vision_backbone.dino_featurizer.patch_embed.norm: Identity()
vision_backbone.dino_featurizer.pos_drop: Dropout(p=0.0, inplace=False)
vision_backbone.dino_featurizer.patch_drop: Identity()
vision_backbone.dino_featurizer.norm_pre: Identity()
vision_backbone.dino_featurizer.blocks: Sequential(
  (0): Block(
    (norm1): LayerNorm((1024,), eps=1e-06, elementwise_affine=True)
    (attn): Attention(
      (qkv): Linear(in_features=1024, out_features=3072, bias=True)
      (q_norm): Identity()
      (k_norm): Identity()
      (attn_drop): Dropout(p=0.0, inplace=False)
      (proj): Linear(in_features=1024, out_features=1024, bias=True)
      (proj_drop): Dropout(p=0.0, inplace=False)
    )
    (ls1): LayerScale()
    (drop_path1): Identity()
    (norm2): LayerNorm((1024,), eps=1e-06, elementwise_affine=True)
    (mlp): Mlp(
      (fc1): Linear(in_features=1024, out_features=4096, bias=True)
      (act): GELU(approximate='none')
      (drop1): Dropout(p=0.0, inplace=False)
      (norm): Identity()
      (fc2): Linear(in_features=4096, out_features=1024, bias=True)
      (drop2): Dropout(p=0.0, inplace=False)
    )
    (ls2): LayerScale()
    (drop_path2): Identity()
  )
  (1): Block(
    (norm1): LayerNorm((1024,), eps=1e-06, elementwise_affine=True)
    (attn): Attention(
      (qkv): Linear(in_features=1024, out_features=3072, bias=True)
      (q_norm): Identity()
      (k_norm): Identity()
      (attn_drop): Dropout(p=0.0, inplace=False)
      (proj): Linear(in_features=1024, out_features=1024, bias=True)
      (proj_drop): Dropout(p=0.0, inplace=False)
    )
    (ls1): LayerScale()
    (drop_path1): Identity()
    (norm2): LayerNorm((1024,), eps=1e-06, elementwise_affine=True)
    (mlp): Mlp(
      (fc1): Linear(in_features=1024, out_features=4096, bias=True)
      (act): GELU(approximate='none')
      (drop1): Dropout(p=0.0, inplace=False)
      (norm): Identity()
      (fc2): Linear(in_features=4096, out_features=1024, bias=True)
      (drop2): Dropout(p=0.0, inplace=False)
    )
    (ls2): LayerScale()
    (drop_path2): Identity()
  )
  (2): Block(
    (norm1): LayerNorm((1024,), eps=1e-06, elementwise_affine=True)
    (attn): Attention(
      (qkv): Linear(in_features=1024, out_features=3072, bias=True)
      (q_norm): Identity()
      (k_norm): Identity()
      (attn_drop): Dropout(p=0.0, inplace=False)
      (proj): Linear(in_features=1024, out_features=1024, bias=True)
      (proj_drop): Dropout(p=0.0, inplace=False)
    )
    (ls1): LayerScale()
    (drop_path1): Identity()
    (norm2): LayerNorm((1024,), eps=1e-06, elementwise_affine=True)
    (mlp): Mlp(
      (fc1): Linear(in_features=1024, out_features=4096, bias=True)
      (act): GELU(approximate='none')
      (drop1): Dropout(p=0.0, inplace=False)
      (norm): Identity()
      (fc2): Linear(in_features=4096, out_features=1024, bias=True)
      (drop2): Dropout(p=0.0, inplace=False)
    )
    (ls2): LayerScale()
    (drop_path2): Identity()
  )
  (3): Block(
    (norm1): LayerNorm((1024,), eps=1e-06, elementwise_affine=True)
    (attn): Attention(
      (qkv): Linear(in_features=1024, out_features=3072, bias=True)
      (q_norm): Identity()
      (k_norm): Identity()
      (attn_drop): Dropout(p=0.0, inplace=False)
      (proj): Linear(in_features=1024, out_features=1024, bias=True)
      (proj_drop): Dropout(p=0.0, inplace=False)
    )
    (ls1): LayerScale()
    (drop_path1): Identity()
    (norm2): LayerNorm((1024,), eps=1e-06, elementwise_affine=True)
    (mlp): Mlp(
      (fc1): Linear(in_features=1024, out_features=4096, bias=True)
      (act): GELU(approximate='none')
      (drop1): Dropout(p=0.0, inplace=False)
      (norm): Identity()
      (fc2): Linear(in_features=4096, out_features=1024, bias=True)
      (drop2): Dropout(p=0.0, inplace=False)
    )
    (ls2): LayerScale()
    (drop_path2): Identity()
  )
  (4): Block(
    (norm1): LayerNorm((1024,), eps=1e-06, elementwise_affine=True)
    (attn): Attention(
      (qkv): Linear(in_features=1024, out_features=3072, bias=True)
      (q_norm): Identity()
      (k_norm): Identity()
      (attn_drop): Dropout(p=0.0, inplace=False)
      (proj): Linear(in_features=1024, out_features=1024, bias=True)
      (proj_drop): Dropout(p=0.0, inplace=False)
    )
    (ls1): LayerScale()
    (drop_path1): Identity()
    (norm2): LayerNorm((1024,), eps=1e-06, elementwise_affine=True)
    (mlp): Mlp(
      (fc1): Linear(in_features=1024, out_features=4096, bias=True)
      (act): GELU(approximate='none')
      (drop1): Dropout(p=0.0, inplace=False)
      (norm): Identity()
      (fc2): Linear(in_features=4096, out_features=1024, bias=True)
      (drop2): Dropout(p=0.0, inplace=False)
    )
    (ls2): LayerScale()
    (drop_path2): Identity()
  )
  (5): Block(
    (norm1): LayerNorm((1024,), eps=1e-06, elementwise_affine=True)
    (attn): Attention(
      (qkv): Linear(in_features=1024, out_features=3072, bias=True)
      (q_norm): Identity()
      (k_norm): Identity()
      (attn_drop): Dropout(p=0.0, inplace=False)
      (proj): Linear(in_features=1024, out_features=1024, bias=True)
      (proj_drop): Dropout(p=0.0, inplace=False)
    )
    (ls1): LayerScale()
    (drop_path1): Identity()
    (norm2): LayerNorm((1024,), eps=1e-06, elementwise_affine=True)
    (mlp): Mlp(
      (fc1): Linear(in_features=1024, out_features=4096, bias=True)
      (act): GELU(approximate='none')
      (drop1): Dropout(p=0.0, inplace=False)
      (norm): Identity()
      (fc2): Linear(in_features=4096, out_features=1024, bias=True)
      (drop2): Dropout(p=0.0, inplace=False)
    )
    (ls2): LayerScale()
    (drop_path2): Identity()
  )
  (6): Block(
    (norm1): LayerNorm((1024,), eps=1e-06, elementwise_affine=True)
    (attn): Attention(
      (qkv): Linear(in_features=1024, out_features=3072, bias=True)
      (q_norm): Identity()
      (k_norm): Identity()
      (attn_drop): Dropout(p=0.0, inplace=False)
      (proj): Linear(in_features=1024, out_features=1024, bias=True)
      (proj_drop): Dropout(p=0.0, inplace=False)
    )
    (ls1): LayerScale()
    (drop_path1): Identity()
    (norm2): LayerNorm((1024,), eps=1e-06, elementwise_affine=True)
    (mlp): Mlp(
      (fc1): Linear(in_features=1024, out_features=4096, bias=True)
      (act): GELU(approximate='none')
      (drop1): Dropout(p=0.0, inplace=False)
      (norm): Identity()
      (fc2): Linear(in_features=4096, out_features=1024, bias=True)
      (drop2): Dropout(p=0.0, inplace=False)
    )
    (ls2): LayerScale()
    (drop_path2): Identity()
  )
  (7): Block(
    (norm1): LayerNorm((1024,), eps=1e-06, elementwise_affine=True)
    (attn): Attention(
      (qkv): Linear(in_features=1024, out_features=3072, bias=True)
      (q_norm): Identity()
      (k_norm): Identity()
      (attn_drop): Dropout(p=0.0, inplace=False)
      (proj): Linear(in_features=1024, out_features=1024, bias=True)
      (proj_drop): Dropout(p=0.0, inplace=False)
    )
    (ls1): LayerScale()
    (drop_path1): Identity()
    (norm2): LayerNorm((1024,), eps=1e-06, elementwise_affine=True)
    (mlp): Mlp(
      (fc1): Linear(in_features=1024, out_features=4096, bias=True)
      (act): GELU(approximate='none')
      (drop1): Dropout(p=0.0, inplace=False)
      (norm): Identity()
      (fc2): Linear(in_features=4096, out_features=1024, bias=True)
      (drop2): Dropout(p=0.0, inplace=False)
    )
    (ls2): LayerScale()
    (drop_path2): Identity()
  )
  (8): Block(
    (norm1): LayerNorm((1024,), eps=1e-06, elementwise_affine=True)
    (attn): Attention(
      (qkv): Linear(in_features=1024, out_features=3072, bias=True)
      (q_norm): Identity()
      (k_norm): Identity()
      (attn_drop): Dropout(p=0.0, inplace=False)
      (proj): Linear(in_features=1024, out_features=1024, bias=True)
      (proj_drop): Dropout(p=0.0, inplace=False)
    )
    (ls1): LayerScale()
    (drop_path1): Identity()
    (norm2): LayerNorm((1024,), eps=1e-06, elementwise_affine=True)
    (mlp): Mlp(
      (fc1): Linear(in_features=1024, out_features=4096, bias=True)
      (act): GELU(approximate='none')
      (drop1): Dropout(p=0.0, inplace=False)
      (norm): Identity()
      (fc2): Linear(in_features=4096, out_features=1024, bias=True)
      (drop2): Dropout(p=0.0, inplace=False)
    )
    (ls2): LayerScale()
    (drop_path2): Identity()
  )
  (9): Block(
    (norm1): LayerNorm((1024,), eps=1e-06, elementwise_affine=True)
    (attn): Attention(
      (qkv): Linear(in_features=1024, out_features=3072, bias=True)
      (q_norm): Identity()
      (k_norm): Identity()
      (attn_drop): Dropout(p=0.0, inplace=False)
      (proj): Linear(in_features=1024, out_features=1024, bias=True)
      (proj_drop): Dropout(p=0.0, inplace=False)
    )
    (ls1): LayerScale()
    (drop_path1): Identity()
    (norm2): LayerNorm((1024,), eps=1e-06, elementwise_affine=True)
    (mlp): Mlp(
      (fc1): Linear(in_features=1024, out_features=4096, bias=True)
      (act): GELU(approximate='none')
      (drop1): Dropout(p=0.0, inplace=False)
      (norm): Identity()
      (fc2): Linear(in_features=4096, out_features=1024, bias=True)
      (drop2): Dropout(p=0.0, inplace=False)
    )
    (ls2): LayerScale()
    (drop_path2): Identity()
  )
  (10): Block(
    (norm1): LayerNorm((1024,), eps=1e-06, elementwise_affine=True)
    (attn): Attention(
      (qkv): Linear(in_features=1024, out_features=3072, bias=True)
      (q_norm): Identity()
      (k_norm): Identity()
      (attn_drop): Dropout(p=0.0, inplace=False)
      (proj): Linear(in_features=1024, out_features=1024, bias=True)
      (proj_drop): Dropout(p=0.0, inplace=False)
    )
    (ls1): LayerScale()
    (drop_path1): Identity()
    (norm2): LayerNorm((1024,), eps=1e-06, elementwise_affine=True)
    (mlp): Mlp(
      (fc1): Linear(in_features=1024, out_features=4096, bias=True)
      (act): GELU(approximate='none')
      (drop1): Dropout(p=0.0, inplace=False)
      (norm): Identity()
      (fc2): Linear(in_features=4096, out_features=1024, bias=True)
      (drop2): Dropout(p=0.0, inplace=False)
    )
    (ls2): LayerScale()
    (drop_path2): Identity()
  )
  (11): Block(
    (norm1): LayerNorm((1024,), eps=1e-06, elementwise_affine=True)
    (attn): Attention(
      (qkv): Linear(in_features=1024, out_features=3072, bias=True)
      (q_norm): Identity()
      (k_norm): Identity()
      (attn_drop): Dropout(p=0.0, inplace=False)
      (proj): Linear(in_features=1024, out_features=1024, bias=True)
      (proj_drop): Dropout(p=0.0, inplace=False)
    )
    (ls1): LayerScale()
    (drop_path1): Identity()
    (norm2): LayerNorm((1024,), eps=1e-06, elementwise_affine=True)
    (mlp): Mlp(
      (fc1): Linear(in_features=1024, out_features=4096, bias=True)
      (act): GELU(approximate='none')
      (drop1): Dropout(p=0.0, inplace=False)
      (norm): Identity()
      (fc2): Linear(in_features=4096, out_features=1024, bias=True)
      (drop2): Dropout(p=0.0, inplace=False)
    )
    (ls2): LayerScale()
    (drop_path2): Identity()
  )
  (12): Block(
    (norm1): LayerNorm((1024,), eps=1e-06, elementwise_affine=True)
    (attn): Attention(
      (qkv): Linear(in_features=1024, out_features=3072, bias=True)
      (q_norm): Identity()
      (k_norm): Identity()
      (attn_drop): Dropout(p=0.0, inplace=False)
      (proj): Linear(in_features=1024, out_features=1024, bias=True)
      (proj_drop): Dropout(p=0.0, inplace=False)
    )
    (ls1): LayerScale()
    (drop_path1): Identity()
    (norm2): LayerNorm((1024,), eps=1e-06, elementwise_affine=True)
    (mlp): Mlp(
      (fc1): Linear(in_features=1024, out_features=4096, bias=True)
      (act): GELU(approximate='none')
      (drop1): Dropout(p=0.0, inplace=False)
      (norm): Identity()
      (fc2): Linear(in_features=4096, out_features=1024, bias=True)
      (drop2): Dropout(p=0.0, inplace=False)
    )
    (ls2): LayerScale()
    (drop_path2): Identity()
  )
  (13): Block(
    (norm1): LayerNorm((1024,), eps=1e-06, elementwise_affine=True)
    (attn): Attention(
      (qkv): Linear(in_features=1024, out_features=3072, bias=True)
      (q_norm): Identity()
      (k_norm): Identity()
      (attn_drop): Dropout(p=0.0, inplace=False)
      (proj): Linear(in_features=1024, out_features=1024, bias=True)
      (proj_drop): Dropout(p=0.0, inplace=False)
    )
    (ls1): LayerScale()
    (drop_path1): Identity()
    (norm2): LayerNorm((1024,), eps=1e-06, elementwise_affine=True)
    (mlp): Mlp(
      (fc1): Linear(in_features=1024, out_features=4096, bias=True)
      (act): GELU(approximate='none')
      (drop1): Dropout(p=0.0, inplace=False)
      (norm): Identity()
      (fc2): Linear(in_features=4096, out_features=1024, bias=True)
      (drop2): Dropout(p=0.0, inplace=False)
    )
    (ls2): LayerScale()
    (drop_path2): Identity()
  )
  (14): Block(
    (norm1): LayerNorm((1024,), eps=1e-06, elementwise_affine=True)
    (attn): Attention(
      (qkv): Linear(in_features=1024, out_features=3072, bias=True)
      (q_norm): Identity()
      (k_norm): Identity()
      (attn_drop): Dropout(p=0.0, inplace=False)
      (proj): Linear(in_features=1024, out_features=1024, bias=True)
      (proj_drop): Dropout(p=0.0, inplace=False)
    )
    (ls1): LayerScale()
    (drop_path1): Identity()
    (norm2): LayerNorm((1024,), eps=1e-06, elementwise_affine=True)
    (mlp): Mlp(
      (fc1): Linear(in_features=1024, out_features=4096, bias=True)
      (act): GELU(approximate='none')
      (drop1): Dropout(p=0.0, inplace=False)
      (norm): Identity()
      (fc2): Linear(in_features=4096, out_features=1024, bias=True)
      (drop2): Dropout(p=0.0, inplace=False)
    )
    (ls2): LayerScale()
    (drop_path2): Identity()
  )
  (15): Block(
    (norm1): LayerNorm((1024,), eps=1e-06, elementwise_affine=True)
    (attn): Attention(
      (qkv): Linear(in_features=1024, out_features=3072, bias=True)
      (q_norm): Identity()
      (k_norm): Identity()
      (attn_drop): Dropout(p=0.0, inplace=False)
      (proj): Linear(in_features=1024, out_features=1024, bias=True)
      (proj_drop): Dropout(p=0.0, inplace=False)
    )
    (ls1): LayerScale()
    (drop_path1): Identity()
    (norm2): LayerNorm((1024,), eps=1e-06, elementwise_affine=True)
    (mlp): Mlp(
      (fc1): Linear(in_features=1024, out_features=4096, bias=True)
      (act): GELU(approximate='none')
      (drop1): Dropout(p=0.0, inplace=False)
      (norm): Identity()
      (fc2): Linear(in_features=4096, out_features=1024, bias=True)
      (drop2): Dropout(p=0.0, inplace=False)
    )
    (ls2): LayerScale()
    (drop_path2): Identity()
  )
  (16): Block(
    (norm1): LayerNorm((1024,), eps=1e-06, elementwise_affine=True)
    (attn): Attention(
      (qkv): Linear(in_features=1024, out_features=3072, bias=True)
      (q_norm): Identity()
      (k_norm): Identity()
      (attn_drop): Dropout(p=0.0, inplace=False)
      (proj): Linear(in_features=1024, out_features=1024, bias=True)
      (proj_drop): Dropout(p=0.0, inplace=False)
    )
    (ls1): LayerScale()
    (drop_path1): Identity()
    (norm2): LayerNorm((1024,), eps=1e-06, elementwise_affine=True)
    (mlp): Mlp(
      (fc1): Linear(in_features=1024, out_features=4096, bias=True)
      (act): GELU(approximate='none')
      (drop1): Dropout(p=0.0, inplace=False)
      (norm): Identity()
      (fc2): Linear(in_features=4096, out_features=1024, bias=True)
      (drop2): Dropout(p=0.0, inplace=False)
    )
    (ls2): LayerScale()
    (drop_path2): Identity()
  )
  (17): Block(
    (norm1): LayerNorm((1024,), eps=1e-06, elementwise_affine=True)
    (attn): Attention(
      (qkv): Linear(in_features=1024, out_features=3072, bias=True)
      (q_norm): Identity()
      (k_norm): Identity()
      (attn_drop): Dropout(p=0.0, inplace=False)
      (proj): Linear(in_features=1024, out_features=1024, bias=True)
      (proj_drop): Dropout(p=0.0, inplace=False)
    )
    (ls1): LayerScale()
    (drop_path1): Identity()
    (norm2): LayerNorm((1024,), eps=1e-06, elementwise_affine=True)
    (mlp): Mlp(
      (fc1): Linear(in_features=1024, out_features=4096, bias=True)
      (act): GELU(approximate='none')
      (drop1): Dropout(p=0.0, inplace=False)
      (norm): Identity()
      (fc2): Linear(in_features=4096, out_features=1024, bias=True)
      (drop2): Dropout(p=0.0, inplace=False)
    )
    (ls2): LayerScale()
    (drop_path2): Identity()
  )
  (18): Block(
    (norm1): LayerNorm((1024,), eps=1e-06, elementwise_affine=True)
    (attn): Attention(
      (qkv): Linear(in_features=1024, out_features=3072, bias=True)
      (q_norm): Identity()
      (k_norm): Identity()
      (attn_drop): Dropout(p=0.0, inplace=False)
      (proj): Linear(in_features=1024, out_features=1024, bias=True)
      (proj_drop): Dropout(p=0.0, inplace=False)
    )
    (ls1): LayerScale()
    (drop_path1): Identity()
    (norm2): LayerNorm((1024,), eps=1e-06, elementwise_affine=True)
    (mlp): Mlp(
      (fc1): Linear(in_features=1024, out_features=4096, bias=True)
      (act): GELU(approximate='none')
      (drop1): Dropout(p=0.0, inplace=False)
      (norm): Identity()
      (fc2): Linear(in_features=4096, out_features=1024, bias=True)
      (drop2): Dropout(p=0.0, inplace=False)
    )
    (ls2): LayerScale()
    (drop_path2): Identity()
  )
  (19): Block(
    (norm1): LayerNorm((1024,), eps=1e-06, elementwise_affine=True)
    (attn): Attention(
      (qkv): Linear(in_features=1024, out_features=3072, bias=True)
      (q_norm): Identity()
      (k_norm): Identity()
      (attn_drop): Dropout(p=0.0, inplace=False)
      (proj): Linear(in_features=1024, out_features=1024, bias=True)
      (proj_drop): Dropout(p=0.0, inplace=False)
    )
    (ls1): LayerScale()
    (drop_path1): Identity()
    (norm2): LayerNorm((1024,), eps=1e-06, elementwise_affine=True)
    (mlp): Mlp(
      (fc1): Linear(in_features=1024, out_features=4096, bias=True)
      (act): GELU(approximate='none')
      (drop1): Dropout(p=0.0, inplace=False)
      (norm): Identity()
      (fc2): Linear(in_features=4096, out_features=1024, bias=True)
      (drop2): Dropout(p=0.0, inplace=False)
    )
    (ls2): LayerScale()
    (drop_path2): Identity()
  )
  (20): Block(
    (norm1): LayerNorm((1024,), eps=1e-06, elementwise_affine=True)
    (attn): Attention(
      (qkv): Linear(in_features=1024, out_features=3072, bias=True)
      (q_norm): Identity()
      (k_norm): Identity()
      (attn_drop): Dropout(p=0.0, inplace=False)
      (proj): Linear(in_features=1024, out_features=1024, bias=True)
      (proj_drop): Dropout(p=0.0, inplace=False)
    )
    (ls1): LayerScale()
    (drop_path1): Identity()
    (norm2): LayerNorm((1024,), eps=1e-06, elementwise_affine=True)
    (mlp): Mlp(
      (fc1): Linear(in_features=1024, out_features=4096, bias=True)
      (act): GELU(approximate='none')
      (drop1): Dropout(p=0.0, inplace=False)
      (norm): Identity()
      (fc2): Linear(in_features=4096, out_features=1024, bias=True)
…
llm_backbone.llm.model.layers.11.mlp.up_proj: Linear(in_features=4096, out_features=11008, bias=False)
llm_backbone.llm.model.layers.11.mlp.down_proj: Linear(in_features=11008, out_features=4096, bias=False)
llm_backbone.llm.model.layers.11.mlp.act_fn: SiLU()
llm_backbone.llm.model.layers.11.input_layernorm: LlamaRMSNorm()
llm_backbone.llm.model.layers.11.post_attention_layernorm: LlamaRMSNorm()
llm_backbone.llm.model.layers.12: LlamaDecoderLayer(
  (self_attn): LlamaSdpaAttention(
    (q_proj): Linear(in_features=4096, out_features=4096, bias=False)
    (k_proj): Linear(in_features=4096, out_features=4096, bias=False)
    (v_proj): Linear(in_features=4096, out_features=4096, bias=False)
    (o_proj): Linear(in_features=4096, out_features=4096, bias=False)
    (rotary_emb): LlamaRotaryEmbedding()
  )
  (mlp): LlamaMLP(
    (gate_proj): Linear(in_features=4096, out_features=11008, bias=False)
    (up_proj): Linear(in_features=4096, out_features=11008, bias=False)
    (down_proj): Linear(in_features=11008, out_features=4096, bias=False)
    (act_fn): SiLU()
  )
  (input_layernorm): LlamaRMSNorm()
  (post_attention_layernorm): LlamaRMSNorm()
)
llm_backbone.llm.model.layers.12.self_attn: LlamaSdpaAttention(
  (q_proj): Linear(in_features=4096, out_features=4096, bias=False)
  (k_proj): Linear(in_features=4096, out_features=4096, bias=False)
  (v_proj): Linear(in_features=4096, out_features=4096, bias=False)
  (o_proj): Linear(in_features=4096, out_features=4096, bias=False)
  (rotary_emb): LlamaRotaryEmbedding()
)
llm_backbone.llm.model.layers.12.self_attn.q_proj: Linear(in_features=4096, out_features=4096, bias=False)
llm_backbone.llm.model.layers.12.self_attn.k_proj: Linear(in_features=4096, out_features=4096, bias=False)
llm_backbone.llm.model.layers.12.self_attn.v_proj: Linear(in_features=4096, out_features=4096, bias=False)
llm_backbone.llm.model.layers.12.self_attn.o_proj: Linear(in_features=4096, out_features=4096, bias=False)
llm_backbone.llm.model.layers.12.self_attn.rotary_emb: LlamaRotaryEmbedding()
llm_backbone.llm.model.layers.12.mlp: LlamaMLP(
  (gate_proj): Linear(in_features=4096, out_features=11008, bias=False)
  (up_proj): Linear(in_features=4096, out_features=11008, bias=False)
  (down_proj): Linear(in_features=11008, out_features=4096, bias=False)
  (act_fn): SiLU()
)
llm_backbone.llm.model.layers.12.mlp.gate_proj: Linear(in_features=4096, out_features=11008, bias=False)
llm_backbone.llm.model.layers.12.mlp.up_proj: Linear(in_features=4096, out_features=11008, bias=False)
llm_backbone.llm.model.layers.12.mlp.down_proj: Linear(in_features=11008, out_features=4096, bias=False)
llm_backbone.llm.model.layers.12.mlp.act_fn: SiLU()
llm_backbone.llm.model.layers.12.input_layernorm: LlamaRMSNorm()
llm_backbone.llm.model.layers.12.post_attention_layernorm: LlamaRMSNorm()
llm_backbone.llm.model.layers.13: LlamaDecoderLayer(
  (self_attn): LlamaSdpaAttention(
    (q_proj): Linear(in_features=4096, out_features=4096, bias=False)
    (k_proj): Linear(in_features=4096, out_features=4096, bias=False)
    (v_proj): Linear(in_features=4096, out_features=4096, bias=False)
    (o_proj): Linear(in_features=4096, out_features=4096, bias=False)
    (rotary_emb): LlamaRotaryEmbedding()
  )
  (mlp): LlamaMLP(
    (gate_proj): Linear(in_features=4096, out_features=11008, bias=False)
    (up_proj): Linear(in_features=4096, out_features=11008, bias=False)
    (down_proj): Linear(in_features=11008, out_features=4096, bias=False)
    (act_fn): SiLU()
  )
  (input_layernorm): LlamaRMSNorm()
  (post_attention_layernorm): LlamaRMSNorm()
)
llm_backbone.llm.model.layers.13.self_attn: LlamaSdpaAttention(
  (q_proj): Linear(in_features=4096, out_features=4096, bias=False)
  (k_proj): Linear(in_features=4096, out_features=4096, bias=False)
  (v_proj): Linear(in_features=4096, out_features=4096, bias=False)
  (o_proj): Linear(in_features=4096, out_features=4096, bias=False)
  (rotary_emb): LlamaRotaryEmbedding()
)
llm_backbone.llm.model.layers.13.self_attn.q_proj: Linear(in_features=4096, out_features=4096, bias=False)
llm_backbone.llm.model.layers.13.self_attn.k_proj: Linear(in_features=4096, out_features=4096, bias=False)
llm_backbone.llm.model.layers.13.self_attn.v_proj: Linear(in_features=4096, out_features=4096, bias=False)
llm_backbone.llm.model.layers.13.self_attn.o_proj: Linear(in_features=4096, out_features=4096, bias=False)
llm_backbone.llm.model.layers.13.self_attn.rotary_emb: LlamaRotaryEmbedding()
llm_backbone.llm.model.layers.13.mlp: LlamaMLP(
  (gate_proj): Linear(in_features=4096, out_features=11008, bias=False)
  (up_proj): Linear(in_features=4096, out_features=11008, bias=False)
  (down_proj): Linear(in_features=11008, out_features=4096, bias=False)
  (act_fn): SiLU()
)
llm_backbone.llm.model.layers.13.mlp.gate_proj: Linear(in_features=4096, out_features=11008, bias=False)
llm_backbone.llm.model.layers.13.mlp.up_proj: Linear(in_features=4096, out_features=11008, bias=False)
llm_backbone.llm.model.layers.13.mlp.down_proj: Linear(in_features=11008, out_features=4096, bias=False)
llm_backbone.llm.model.layers.13.mlp.act_fn: SiLU()
llm_backbone.llm.model.layers.13.input_layernorm: LlamaRMSNorm()
llm_backbone.llm.model.layers.13.post_attention_layernorm: LlamaRMSNorm()
llm_backbone.llm.model.layers.14: LlamaDecoderLayer(
  (self_attn): LlamaSdpaAttention(
    (q_proj): Linear(in_features=4096, out_features=4096, bias=False)
    (k_proj): Linear(in_features=4096, out_features=4096, bias=False)
    (v_proj): Linear(in_features=4096, out_features=4096, bias=False)
    (o_proj): Linear(in_features=4096, out_features=4096, bias=False)
    (rotary_emb): LlamaRotaryEmbedding()
  )
  (mlp): LlamaMLP(
    (gate_proj): Linear(in_features=4096, out_features=11008, bias=False)
    (up_proj): Linear(in_features=4096, out_features=11008, bias=False)
    (down_proj): Linear(in_features=11008, out_features=4096, bias=False)
    (act_fn): SiLU()
  )
  (input_layernorm): LlamaRMSNorm()
  (post_attention_layernorm): LlamaRMSNorm()
)
llm_backbone.llm.model.layers.14.self_attn: LlamaSdpaAttention(
  (q_proj): Linear(in_features=4096, out_features=4096, bias=False)
  (k_proj): Linear(in_features=4096, out_features=4096, bias=False)
  (v_proj): Linear(in_features=4096, out_features=4096, bias=False)
  (o_proj): Linear(in_features=4096, out_features=4096, bias=False)
  (rotary_emb): LlamaRotaryEmbedding()
)
llm_backbone.llm.model.layers.14.self_attn.q_proj: Linear(in_features=4096, out_features=4096, bias=False)
llm_backbone.llm.model.layers.14.self_attn.k_proj: Linear(in_features=4096, out_features=4096, bias=False)
llm_backbone.llm.model.layers.14.self_attn.v_proj: Linear(in_features=4096, out_features=4096, bias=False)
llm_backbone.llm.model.layers.14.self_attn.o_proj: Linear(in_features=4096, out_features=4096, bias=False)
llm_backbone.llm.model.layers.14.self_attn.rotary_emb: LlamaRotaryEmbedding()
llm_backbone.llm.model.layers.14.mlp: LlamaMLP(
  (gate_proj): Linear(in_features=4096, out_features=11008, bias=False)
  (up_proj): Linear(in_features=4096, out_features=11008, bias=False)
  (down_proj): Linear(in_features=11008, out_features=4096, bias=False)
  (act_fn): SiLU()
)
llm_backbone.llm.model.layers.14.mlp.gate_proj: Linear(in_features=4096, out_features=11008, bias=False)
llm_backbone.llm.model.layers.14.mlp.up_proj: Linear(in_features=4096, out_features=11008, bias=False)
llm_backbone.llm.model.layers.14.mlp.down_proj: Linear(in_features=11008, out_features=4096, bias=False)
llm_backbone.llm.model.layers.14.mlp.act_fn: SiLU()
llm_backbone.llm.model.layers.14.input_layernorm: LlamaRMSNorm()
llm_backbone.llm.model.layers.14.post_attention_layernorm: LlamaRMSNorm()
llm_backbone.llm.model.layers.15: LlamaDecoderLayer(
  (self_attn): LlamaSdpaAttention(
    (q_proj): Linear(in_features=4096, out_features=4096, bias=False)
    (k_proj): Linear(in_features=4096, out_features=4096, bias=False)
    (v_proj): Linear(in_features=4096, out_features=4096, bias=False)
    (o_proj): Linear(in_features=4096, out_features=4096, bias=False)
    (rotary_emb): LlamaRotaryEmbedding()
  )
  (mlp): LlamaMLP(
    (gate_proj): Linear(in_features=4096, out_features=11008, bias=False)
    (up_proj): Linear(in_features=4096, out_features=11008, bias=False)
    (down_proj): Linear(in_features=11008, out_features=4096, bias=False)
    (act_fn): SiLU()
  )
  (input_layernorm): LlamaRMSNorm()
  (post_attention_layernorm): LlamaRMSNorm()
)
llm_backbone.llm.model.layers.15.self_attn: LlamaSdpaAttention(
  (q_proj): Linear(in_features=4096, out_features=4096, bias=False)
  (k_proj): Linear(in_features=4096, out_features=4096, bias=False)
  (v_proj): Linear(in_features=4096, out_features=4096, bias=False)
  (o_proj): Linear(in_features=4096, out_features=4096, bias=False)
  (rotary_emb): LlamaRotaryEmbedding()
)
llm_backbone.llm.model.layers.15.self_attn.q_proj: Linear(in_features=4096, out_features=4096, bias=False)
llm_backbone.llm.model.layers.15.self_attn.k_proj: Linear(in_features=4096, out_features=4096, bias=False)
llm_backbone.llm.model.layers.15.self_attn.v_proj: Linear(in_features=4096, out_features=4096, bias=False)
llm_backbone.llm.model.layers.15.self_attn.o_proj: Linear(in_features=4096, out_features=4096, bias=False)
llm_backbone.llm.model.layers.15.self_attn.rotary_emb: LlamaRotaryEmbedding()
llm_backbone.llm.model.layers.15.mlp: LlamaMLP(
  (gate_proj): Linear(in_features=4096, out_features=11008, bias=False)
  (up_proj): Linear(in_features=4096, out_features=11008, bias=False)
  (down_proj): Linear(in_features=11008, out_features=4096, bias=False)
  (act_fn): SiLU()
)
llm_backbone.llm.model.layers.15.mlp.gate_proj: Linear(in_features=4096, out_features=11008, bias=False)
llm_backbone.llm.model.layers.15.mlp.up_proj: Linear(in_features=4096, out_features=11008, bias=False)
llm_backbone.llm.model.layers.15.mlp.down_proj: Linear(in_features=11008, out_features=4096, bias=False)
llm_backbone.llm.model.layers.15.mlp.act_fn: SiLU()
llm_backbone.llm.model.layers.15.input_layernorm: LlamaRMSNorm()
llm_backbone.llm.model.layers.15.post_attention_layernorm: LlamaRMSNorm()
llm_backbone.llm.model.layers.16: LlamaDecoderLayer(
  (self_attn): LlamaSdpaAttention(
    (q_proj): Linear(in_features=4096, out_features=4096, bias=False)
    (k_proj): Linear(in_features=4096, out_features=4096, bias=False)
    (v_proj): Linear(in_features=4096, out_features=4096, bias=False)
    (o_proj): Linear(in_features=4096, out_features=4096, bias=False)
    (rotary_emb): LlamaRotaryEmbedding()
  )
  (mlp): LlamaMLP(
    (gate_proj): Linear(in_features=4096, out_features=11008, bias=False)
    (up_proj): Linear(in_features=4096, out_features=11008, bias=False)
    (down_proj): Linear(in_features=11008, out_features=4096, bias=False)
    (act_fn): SiLU()
  )
  (input_layernorm): LlamaRMSNorm()
  (post_attention_layernorm): LlamaRMSNorm()
)
llm_backbone.llm.model.layers.16.self_attn: LlamaSdpaAttention(
  (q_proj): Linear(in_features=4096, out_features=4096, bias=False)
  (k_proj): Linear(in_features=4096, out_features=4096, bias=False)
  (v_proj): Linear(in_features=4096, out_features=4096, bias=False)
  (o_proj): Linear(in_features=4096, out_features=4096, bias=False)
  (rotary_emb): LlamaRotaryEmbedding()
)
llm_backbone.llm.model.layers.16.self_attn.q_proj: Linear(in_features=4096, out_features=4096, bias=False)
llm_backbone.llm.model.layers.16.self_attn.k_proj: Linear(in_features=4096, out_features=4096, bias=False)
llm_backbone.llm.model.layers.16.self_attn.v_proj: Linear(in_features=4096, out_features=4096, bias=False)
llm_backbone.llm.model.layers.16.self_attn.o_proj: Linear(in_features=4096, out_features=4096, bias=False)
llm_backbone.llm.model.layers.16.self_attn.rotary_emb: LlamaRotaryEmbedding()
llm_backbone.llm.model.layers.16.mlp: LlamaMLP(
  (gate_proj): Linear(in_features=4096, out_features=11008, bias=False)
  (up_proj): Linear(in_features=4096, out_features=11008, bias=False)
  (down_proj): Linear(in_features=11008, out_features=4096, bias=False)
  (act_fn): SiLU()
)
llm_backbone.llm.model.layers.16.mlp.gate_proj: Linear(in_features=4096, out_features=11008, bias=False)
llm_backbone.llm.model.layers.16.mlp.up_proj: Linear(in_features=4096, out_features=11008, bias=False)
llm_backbone.llm.model.layers.16.mlp.down_proj: Linear(in_features=11008, out_features=4096, bias=False)
llm_backbone.llm.model.layers.16.mlp.act_fn: SiLU()
llm_backbone.llm.model.layers.16.input_layernorm: LlamaRMSNorm()
llm_backbone.llm.model.layers.16.post_attention_layernorm: LlamaRMSNorm()
llm_backbone.llm.model.layers.17: LlamaDecoderLayer(
  (self_attn): LlamaSdpaAttention(
    (q_proj): Linear(in_features=4096, out_features=4096, bias=False)
    (k_proj): Linear(in_features=4096, out_features=4096, bias=False)
    (v_proj): Linear(in_features=4096, out_features=4096, bias=False)
    (o_proj): Linear(in_features=4096, out_features=4096, bias=False)
    (rotary_emb): LlamaRotaryEmbedding()
  )
  (mlp): LlamaMLP(
    (gate_proj): Linear(in_features=4096, out_features=11008, bias=False)
    (up_proj): Linear(in_features=4096, out_features=11008, bias=False)
    (down_proj): Linear(in_features=11008, out_features=4096, bias=False)
    (act_fn): SiLU()
  )
  (input_layernorm): LlamaRMSNorm()
  (post_attention_layernorm): LlamaRMSNorm()
)
llm_backbone.llm.model.layers.17.self_attn: LlamaSdpaAttention(
  (q_proj): Linear(in_features=4096, out_features=4096, bias=False)
  (k_proj): Linear(in_features=4096, out_features=4096, bias=False)
  (v_proj): Linear(in_features=4096, out_features=4096, bias=False)
  (o_proj): Linear(in_features=4096, out_features=4096, bias=False)
  (rotary_emb): LlamaRotaryEmbedding()
)
llm_backbone.llm.model.layers.17.self_attn.q_proj: Linear(in_features=4096, out_features=4096, bias=False)
llm_backbone.llm.model.layers.17.self_attn.k_proj: Linear(in_features=4096, out_features=4096, bias=False)
llm_backbone.llm.model.layers.17.self_attn.v_proj: Linear(in_features=4096, out_features=4096, bias=False)
llm_backbone.llm.model.layers.17.self_attn.o_proj: Linear(in_features=4096, out_features=4096, bias=False)
llm_backbone.llm.model.layers.17.self_attn.rotary_emb: LlamaRotaryEmbedding()
llm_backbone.llm.model.layers.17.mlp: LlamaMLP(
  (gate_proj): Linear(in_features=4096, out_features=11008, bias=False)
  (up_proj): Linear(in_features=4096, out_features=11008, bias=False)
  (down_proj): Linear(in_features=11008, out_features=4096, bias=False)
  (act_fn): SiLU()
)
llm_backbone.llm.model.layers.17.mlp.gate_proj: Linear(in_features=4096, out_features=11008, bias=False)
llm_backbone.llm.model.layers.17.mlp.up_proj: Linear(in_features=4096, out_features=11008, bias=False)
llm_backbone.llm.model.layers.17.mlp.down_proj: Linear(in_features=11008, out_features=4096, bias=False)
llm_backbone.llm.model.layers.17.mlp.act_fn: SiLU()
llm_backbone.llm.model.layers.17.input_layernorm: LlamaRMSNorm()
llm_backbone.llm.model.layers.17.post_attention_layernorm: LlamaRMSNorm()
llm_backbone.llm.model.layers.18: LlamaDecoderLayer(
  (self_attn): LlamaSdpaAttention(
    (q_proj): Linear(in_features=4096, out_features=4096, bias=False)
    (k_proj): Linear(in_features=4096, out_features=4096, bias=False)
    (v_proj): Linear(in_features=4096, out_features=4096, bias=False)
    (o_proj): Linear(in_features=4096, out_features=4096, bias=False)
    (rotary_emb): LlamaRotaryEmbedding()
  )
  (mlp): LlamaMLP(
    (gate_proj): Linear(in_features=4096, out_features=11008, bias=False)
    (up_proj): Linear(in_features=4096, out_features=11008, bias=False)
    (down_proj): Linear(in_features=11008, out_features=4096, bias=False)
    (act_fn): SiLU()
  )
  (input_layernorm): LlamaRMSNorm()
  (post_attention_layernorm): LlamaRMSNorm()
)
llm_backbone.llm.model.layers.18.self_attn: LlamaSdpaAttention(
  (q_proj): Linear(in_features=4096, out_features=4096, bias=False)
  (k_proj): Linear(in_features=4096, out_features=4096, bias=False)
  (v_proj): Linear(in_features=4096, out_features=4096, bias=False)
  (o_proj): Linear(in_features=4096, out_features=4096, bias=False)
  (rotary_emb): LlamaRotaryEmbedding()
)
llm_backbone.llm.model.layers.18.self_attn.q_proj: Linear(in_features=4096, out_features=4096, bias=False)
llm_backbone.llm.model.layers.18.self_attn.k_proj: Linear(in_features=4096, out_features=4096, bias=False)
llm_backbone.llm.model.layers.18.self_attn.v_proj: Linear(in_features=4096, out_features=4096, bias=False)
llm_backbone.llm.model.layers.18.self_attn.o_proj: Linear(in_features=4096, out_features=4096, bias=False)
llm_backbone.llm.model.layers.18.self_attn.rotary_emb: LlamaRotaryEmbedding()
llm_backbone.llm.model.layers.18.mlp: LlamaMLP(
  (gate_proj): Linear(in_features=4096, out_features=11008, bias=False)
  (up_proj): Linear(in_features=4096, out_features=11008, bias=False)
  (down_proj): Linear(in_features=11008, out_features=4096, bias=False)
  (act_fn): SiLU()
)
llm_backbone.llm.model.layers.18.mlp.gate_proj: Linear(in_features=4096, out_features=11008, bias=False)
llm_backbone.llm.model.layers.18.mlp.up_proj: Linear(in_features=4096, out_features=11008, bias=False)
llm_backbone.llm.model.layers.18.mlp.down_proj: Linear(in_features=11008, out_features=4096, bias=False)
llm_backbone.llm.model.layers.18.mlp.act_fn: SiLU()
llm_backbone.llm.model.layers.18.input_layernorm: LlamaRMSNorm()
llm_backbone.llm.model.layers.18.post_attention_layernorm: LlamaRMSNorm()
llm_backbone.llm.model.layers.19: LlamaDecoderLayer(
  (self_attn): LlamaSdpaAttention(
    (q_proj): Linear(in_features=4096, out_features=4096, bias=False)
    (k_proj): Linear(in_features=4096, out_features=4096, bias=False)
    (v_proj): Linear(in_features=4096, out_features=4096, bias=False)
    (o_proj): Linear(in_features=4096, out_features=4096, bias=False)
    (rotary_emb): LlamaRotaryEmbedding()
  )
  (mlp): LlamaMLP(
    (gate_proj): Linear(in_features=4096, out_features=11008, bias=False)
    (up_proj): Linear(in_features=4096, out_features=11008, bias=False)
    (down_proj): Linear(in_features=11008, out_features=4096, bias=False)
    (act_fn): SiLU()
  )
  (input_layernorm): LlamaRMSNorm()
  (post_attention_layernorm): LlamaRMSNorm()
)
llm_backbone.llm.model.layers.19.self_attn: LlamaSdpaAttention(
  (q_proj): Linear(in_features=4096, out_features=4096, bias=False)
  (k_proj): Linear(in_features=4096, out_features=4096, bias=False)
  (v_proj): Linear(in_features=4096, out_features=4096, bias=False)
  (o_proj): Linear(in_features=4096, out_features=4096, bias=False)
  (rotary_emb): LlamaRotaryEmbedding()
)
llm_backbone.llm.model.layers.19.self_attn.q_proj: Linear(in_features=4096, out_features=4096, bias=False)
llm_backbone.llm.model.layers.19.self_attn.k_proj: Linear(in_features=4096, out_features=4096, bias=False)
llm_backbone.llm.model.layers.19.self_attn.v_proj: Linear(in_features=4096, out_features=4096, bias=False)
llm_backbone.llm.model.layers.19.self_attn.o_proj: Linear(in_features=4096, out_features=4096, bias=False)
llm_backbone.llm.model.layers.19.self_attn.rotary_emb: LlamaRotaryEmbedding()
llm_backbone.llm.model.layers.19.mlp: LlamaMLP(
  (gate_proj): Linear(in_features=4096, out_features=11008, bias=False)
  (up_proj): Linear(in_features=4096, out_features=11008, bias=False)
  (down_proj): Linear(in_features=11008, out_features=4096, bias=False)
  (act_fn): SiLU()
)
llm_backbone.llm.model.layers.19.mlp.gate_proj: Linear(in_features=4096, out_features=11008, bias=False)
llm_backbone.llm.model.layers.19.mlp.up_proj: Linear(in_features=4096, out_features=11008, bias=False)
llm_backbone.llm.model.layers.19.mlp.down_proj: Linear(in_features=11008, out_features=4096, bias=False)
llm_backbone.llm.model.layers.19.mlp.act_fn: SiLU()
llm_backbone.llm.model.layers.19.input_layernorm: LlamaRMSNorm()
llm_backbone.llm.model.layers.19.post_attention_layernorm: LlamaRMSNorm()
llm_backbone.llm.model.layers.20: LlamaDecoderLayer(
  (self_attn): LlamaSdpaAttention(
    (q_proj): Linear(in_features=4096, out_features=4096, bias=False)
    (k_proj): Linear(in_features=4096, out_features=4096, bias=False)
    (v_proj): Linear(in_features=4096, out_features=4096, bias=False)
    (o_proj): Linear(in_features=4096, out_features=4096, bias=False)
    (rotary_emb): LlamaRotaryEmbedding()
  )
  (mlp): LlamaMLP(
    (gate_proj): Linear(in_features=4096, out_features=11008, bias=False)
    (up_proj): Linear(in_features=4096, out_features=11008, bias=False)
    (down_proj): Linear(in_features=11008, out_features=4096, bias=False)
    (act_fn): SiLU()
  )
  (input_layernorm): LlamaRMSNorm()
  (post_attention_layernorm): LlamaRMSNorm()
)
llm_backbone.llm.model.layers.20.self_attn: LlamaSdpaAttention(
  (q_proj): Linear(in_features=4096, out_features=4096, bias=False)
  (k_proj): Linear(in_features=4096, out_features=4096, bias=False)
  (v_proj): Linear(in_features=4096, out_features=4096, bias=False)
  (o_proj): Linear(in_features=4096, out_features=4096, bias=False)
  (rotary_emb): LlamaRotaryEmbedding()
)
llm_backbone.llm.model.layers.20.self_attn.q_proj: Linear(in_features=4096, out_features=4096, bias=False)
llm_backbone.llm.model.layers.20.self_attn.k_proj: Linear(in_features=4096, out_features=4096, bias=False)
llm_backbone.llm.model.layers.20.self_attn.v_proj: Linear(in_features=4096, out_features=4096, bias=False)
llm_backbone.llm.model.layers.20.self_attn.o_proj: Linear(in_features=4096, out_features=4096, bias=False)
llm_backbone.llm.model.layers.20.self_attn.rotary_emb: LlamaRotaryEmbedding()
llm_backbone.llm.model.layers.20.mlp: LlamaMLP(
  (gate_proj): Linear(in_features=4096, out_features=11008, bias=False)
  (up_proj): Linear(in_features=4096, out_features=11008, bias=False)
  (down_proj): Linear(in_features=11008, out_features=4096, bias=False)
  (act_fn): SiLU()
)
llm_backbone.llm.model.layers.20.mlp.gate_proj: Linear(in_features=4096, out_features=11008, bias=False)
llm_backbone.llm.model.layers.20.mlp.up_proj: Linear(in_features=4096, out_features=11008, bias=False)
llm_backbone.llm.model.layers.20.mlp.down_proj: Linear(in_features=11008, out_features=4096, bias=False)
llm_backbone.llm.model.layers.20.mlp.act_fn: SiLU()
llm_backbone.llm.model.layers.20.input_layernorm: LlamaRMSNorm()
llm_backbone.llm.model.layers.20.post_attention_layernorm: LlamaRMSNorm()
llm_backbone.llm.model.layers.21: LlamaDecoderLayer(
  (self_attn): LlamaSdpaAttention(
    (q_proj): Linear(in_features=4096, out_features=4096, bias=False)
    (k_proj): Linear(in_features=4096, out_features=4096, bias=False)
    (v_proj): Linear(in_features=4096, out_features=4096, bias=False)
    (o_proj): Linear(in_features=4096, out_features=4096, bias=False)
    (rotary_emb): LlamaRotaryEmbedding()
  )
  (mlp): LlamaMLP(
    (gate_proj): Linear(in_features=4096, out_features=11008, bias=False)
    (up_proj): Linear(in_features=4096, out_features=11008, bias=False)
    (down_proj): Linear(in_features=11008, out_features=4096, bias=False)
    (act_fn): SiLU()
  )
  (input_layernorm): LlamaRMSNorm()
  (post_attention_layernorm): LlamaRMSNorm()
)
llm_backbone.llm.model.layers.21.self_attn: LlamaSdpaAttention(
  (q_proj): Linear(in_features=4096, out_features=4096, bias=False)
  (k_proj): Linear(in_features=4096, out_features=4096, bias=False)
  (v_proj): Linear(in_features=4096, out_features=4096, bias=False)
  (o_proj): Linear(in_features=4096, out_features=4096, bias=False)
  (rotary_emb): LlamaRotaryEmbedding()
)
llm_backbone.llm.model.layers.21.self_attn.q_proj: Linear(in_features=4096, out_features=4096, bias=False)
llm_backbone.llm.model.layers.21.self_attn.k_proj: Linear(in_features=4096, out_features=4096, bias=False)
llm_backbone.llm.model.layers.21.self_attn.v_proj: Linear(in_features=4096, out_features=4096, bias=False)
llm_backbone.llm.model.layers.21.self_attn.o_proj: Linear(in_features=4096, out_features=4096, bias=False)
llm_backbone.llm.model.layers.21.self_attn.rotary_emb: LlamaRotaryEmbedding()
llm_backbone.llm.model.layers.21.mlp: LlamaMLP(
  (gate_proj): Linear(in_features=4096, out_features=11008, bias=False)
  (up_proj): Linear(in_features=4096, out_features=11008, bias=False)
  (down_proj): Linear(in_features=11008, out_features=4096, bias=False)
  (act_fn): SiLU()
)
llm_backbone.llm.model.layers.21.mlp.gate_proj: Linear(in_features=4096, out_features=11008, bias=False)
llm_backbone.llm.model.layers.21.mlp.up_proj: Linear(in_features=4096, out_features=11008, bias=False)
llm_backbone.llm.model.layers.21.mlp.down_proj: Linear(in_features=11008, out_features=4096, bias=False)
llm_backbone.llm.model.layers.21.mlp.act_fn: SiLU()
llm_backbone.llm.model.layers.21.input_layernorm: LlamaRMSNorm()
llm_backbone.llm.model.layers.21.post_attention_layernorm: LlamaRMSNorm()
llm_backbone.llm.model.layers.22: LlamaDecoderLayer(
  (self_attn): LlamaSdpaAttention(
    (q_proj): Linear(in_features=4096, out_features=4096, bias=False)
    (k_proj): Linear(in_features=4096, out_features=4096, bias=False)
    (v_proj): Linear(in_features=4096, out_features=4096, bias=False)
    (o_proj): Linear(in_features=4096, out_features=4096, bias=False)
    (rotary_emb): LlamaRotaryEmbedding()
  )
  (mlp): LlamaMLP(
    (gate_proj): Linear(in_features=4096, out_features=11008, bias=False)
    (up_proj): Linear(in_features=4096, out_features=11008, bias=False)
    (down_proj): Linear(in_features=11008, out_features=4096, bias=False)
    (act_fn): SiLU()
  )
  (input_layernorm): LlamaRMSNorm()
  (post_attention_layernorm): LlamaRMSNorm()
)
llm_backbone.llm.model.layers.22.self_attn: LlamaSdpaAttention(
  (q_proj): Linear(in_features=4096, out_features=4096, bias=False)
  (k_proj): Linear(in_features=4096, out_features=4096, bias=False)
  (v_proj): Linear(in_features=4096, out_features=4096, bias=False)
  (o_proj): Linear(in_features=4096, out_features=4096, bias=False)
  (rotary_emb): LlamaRotaryEmbedding()
)
llm_backbone.llm.model.layers.22.self_attn.q_proj: Linear(in_features=4096, out_features=4096, bias=False)
llm_backbone.llm.model.layers.22.self_attn.k_proj: Linear(in_features=4096, out_features=4096, bias=False)
llm_backbone.llm.model.layers.22.self_attn.v_proj: Linear(in_features=4096, out_features=4096, bias=False)
llm_backbone.llm.model.layers.22.self_attn.o_proj: Linear(in_features=4096, out_features=4096, bias=False)
llm_backbone.llm.model.layers.22.self_attn.rotary_emb: LlamaRotaryEmbedding()
llm_backbone.llm.model.layers.22.mlp: LlamaMLP(
  (gate_proj): Linear(in_features=4096, out_features=11008, bias=False)
  (up_proj): Linear(in_features=4096, out_features=11008, bias=False)
  (down_proj): Linear(in_features=11008, out_features=4096, bias=False)
  (act_fn): SiLU()
)
llm_backbone.llm.model.layers.22.mlp.gate_proj: Linear(in_features=4096, out_features=11008, bias=False)
llm_backbone.llm.model.layers.22.mlp.up_proj: Linear(in_features=4096, out_features=11008, bias=False)
llm_backbone.llm.model.layers.22.mlp.down_proj: Linear(in_features=11008, out_features=4096, bias=False)
llm_backbone.llm.model.layers.22.mlp.act_fn: SiLU()
llm_backbone.llm.model.layers.22.input_layernorm: LlamaRMSNorm()
llm_backbone.llm.model.layers.22.post_attention_layernorm: LlamaRMSNorm()
llm_backbone.llm.model.layers.23: LlamaDecoderLayer(
  (self_attn): LlamaSdpaAttention(
    (q_proj): Linear(in_features=4096, out_features=4096, bias=False)
    (k_proj): Linear(in_features=4096, out_features=4096, bias=False)
    (v_proj): Linear(in_features=4096, out_features=4096, bias=False)
    (o_proj): Linear(in_features=4096, out_features=4096, bias=False)
    (rotary_emb): LlamaRotaryEmbedding()
  )
  (mlp): LlamaMLP(
    (gate_proj): Linear(in_features=4096, out_features=11008, bias=False)
    (up_proj): Linear(in_features=4096, out_features=11008, bias=False)
    (down_proj): Linear(in_features=11008, out_features=4096, bias=False)
    (act_fn): SiLU()
  )
  (input_layernorm): LlamaRMSNorm()
  (post_attention_layernorm): LlamaRMSNorm()
)
llm_backbone.llm.model.layers.23.self_attn: LlamaSdpaAttention(
  (q_proj): Linear(in_features=4096, out_features=4096, bias=False)
  (k_proj): Linear(in_features=4096, out_features=4096, bias=False)
  (v_proj): Linear(in_features=4096, out_features=4096, bias=False)
  (o_proj): Linear(in_features=4096, out_features=4096, bias=False)
  (rotary_emb): LlamaRotaryEmbedding()
)
llm_backbone.llm.model.layers.23.self_attn.q_proj: Linear(in_features=4096, out_features=4096, bias=False)
llm_backbone.llm.model.layers.23.self_attn.k_proj: Linear(in_features=4096, out_features=4096, bias=False)
llm_backbone.llm.model.layers.23.self_attn.v_proj: Linear(in_features=4096, out_features=4096, bias=False)
llm_backbone.llm.model.layers.23.self_attn.o_proj: Linear(in_features=4096, out_features=4096, bias=False)
llm_backbone.llm.model.layers.23.self_attn.rotary_emb: LlamaRotaryEmbedding()
llm_backbone.llm.model.layers.23.mlp: LlamaMLP(
  (gate_proj): Linear(in_features=4096, out_features=11008, bias=False)
  (up_proj): Linear(in_features=4096, out_features=11008, bias=False)
  (down_proj): Linear(in_features=11008, out_features=4096, bias=False)
  (act_fn): SiLU()
)
llm_backbone.llm.model.layers.23.mlp.gate_proj: Linear(in_features=4096, out_features=11008, bias=False)
llm_backbone.llm.model.layers.23.mlp.up_proj: Linear(in_features=4096, out_features=11008, bias=False)
llm_backbone.llm.model.layers.23.mlp.down_proj: Linear(in_features=11008, out_features=4096, bias=False)
llm_backbone.llm.model.layers.23.mlp.act_fn: SiLU()
llm_backbone.llm.model.layers.23.input_layernorm: LlamaRMSNorm()
llm_backbone.llm.model.layers.23.post_attention_layernorm: LlamaRMSNorm()
llm_backbone.llm.model.layers.24: LlamaDecoderLayer(
  (self_attn): LlamaSdpaAttention(
    (q_proj): Linear(in_features=4096, out_features=4096, bias=False)
    (k_proj): Linear(in_features=4096, out_features=4096, bias=False)
    (v_proj): Linear(in_features=4096, out_features=4096, bias=False)
    (o_proj): Linear(in_features=4096, out_features=4096, bias=False)
    (rotary_emb): LlamaRotaryEmbedding()
  )
  (mlp): LlamaMLP(
    (gate_proj): Linear(in_features=4096, out_features=11008, bias=False)
    (up_proj): Linear(in_features=4096, out_features=11008, bias=False)
    (down_proj): Linear(in_features=11008, out_features=4096, bias=False)
    (act_fn): SiLU()
  )
  (input_layernorm): LlamaRMSNorm()
  (post_attention_layernorm): LlamaRMSNorm()
)
llm_backbone.llm.model.layers.24.self_attn: LlamaSdpaAttention(
  (q_proj): Linear(in_features=4096, out_features=4096, bias=False)
  (k_proj): Linear(in_features=4096, out_features=4096, bias=False)
  (v_proj): Linear(in_features=4096, out_features=4096, bias=False)
  (o_proj): Linear(in_features=4096, out_features=4096, bias=False)
  (rotary_emb): LlamaRotaryEmbedding()
)
llm_backbone.llm.model.layers.24.self_attn.q_proj: Linear(in_features=4096, out_features=4096, bias=False)
llm_backbone.llm.model.layers.24.self_attn.k_proj: Linear(in_features=4096, out_features=4096, bias=False)
llm_backbone.llm.model.layers.24.self_attn.v_proj: Linear(in_features=4096, out_features=4096, bias=False)
llm_backbone.llm.model.layers.24.self_attn.o_proj: Linear(in_features=4096, out_features=4096, bias=False)
llm_backbone.llm.model.layers.24.self_attn.rotary_emb: LlamaRotaryEmbedding()
llm_backbone.llm.model.layers.24.mlp: LlamaMLP(
  (gate_proj): Linear(in_features=4096, out_features=11008, bias=False)
  (up_proj): Linear(in_features=4096, out_features=11008, bias=False)
  (down_proj): Linear(in_features=11008, out_features=4096, bias=False)
  (act_fn): SiLU()
)
llm_backbone.llm.model.layers.24.mlp.gate_proj: Linear(in_features=4096, out_features=11008, bias=False)
llm_backbone.llm.model.layers.24.mlp.up_proj: Linear(in_features=4096, out_features=11008, bias=False)
llm_backbone.llm.model.layers.24.mlp.down_proj: Linear(in_features=11008, out_features=4096, bias=False)
llm_backbone.llm.model.layers.24.mlp.act_fn: SiLU()
llm_backbone.llm.model.layers.24.input_layernorm: LlamaRMSNorm()
llm_backbone.llm.model.layers.24.post_attention_layernorm: LlamaRMSNorm()
llm_backbone.llm.model.layers.25: LlamaDecoderLayer(
  (self_attn): LlamaSdpaAttention(
    (q_proj): Linear(in_features=4096, out_features=4096, bias=False)
    (k_proj): Linear(in_features=4096, out_features=4096, bias=False)
    (v_proj): Linear(in_features=4096, out_features=4096, bias=False)
    (o_proj): Linear(in_features=4096, out_features=4096, bias=False)
    (rotary_emb): LlamaRotaryEmbedding()
  )
  (mlp): LlamaMLP(
    (gate_proj): Linear(in_features=4096, out_features=11008, bias=False)
    (up_proj): Linear(in_features=4096, out_features=11008, bias=False)
    (down_proj): Linear(in_features=11008, out_features=4096, bias=False)
    (act_fn): SiLU()
  )
  (input_layernorm): LlamaRMSNorm()
  (post_attention_layernorm): LlamaRMSNorm()
)
llm_backbone.llm.model.layers.25.self_attn: LlamaSdpaAttention(
  (q_proj): Linear(in_features=4096, out_features=4096, bias=False)
  (k_proj): Linear(in_features=4096, out_features=4096, bias=False)
  (v_proj): Linear(in_features=4096, out_features=4096, bias=False)
  (o_proj): Linear(in_features=4096, out_features=4096, bias=False)
  (rotary_emb): LlamaRotaryEmbedding()
)
llm_backbone.llm.model.layers.25.self_attn.q_proj: Linear(in_features=4096, out_features=4096, bias=False)
llm_backbone.llm.model.layers.25.self_attn.k_proj: Linear(in_features=4096, out_features=4096, bias=False)
llm_backbone.llm.model.layers.25.self_attn.v_proj: Linear(in_features=4096, out_features=4096, bias=False)
llm_backbone.llm.model.layers.25.self_attn.o_proj: Linear(in_features=4096, out_features=4096, bias=False)
llm_backbone.llm.model.layers.25.self_attn.rotary_emb: LlamaRotaryEmbedding()
llm_backbone.llm.model.layers.25.mlp: LlamaMLP(
  (gate_proj): Linear(in_features=4096, out_features=11008, bias=False)
  (up_proj): Linear(in_features=4096, out_features=11008, bias=False)
  (down_proj): Linear(in_features=11008, out_features=4096, bias=False)
  (act_fn): SiLU()
)
llm_backbone.llm.model.layers.25.mlp.gate_proj: Linear(in_features=4096, out_features=11008, bias=False)
llm_backbone.llm.model.layers.25.mlp.up_proj: Linear(in_features=4096, out_features=11008, bias=False)
llm_backbone.llm.model.layers.25.mlp.down_proj: Linear(in_features=11008, out_features=4096, bias=False)
llm_backbone.llm.model.layers.25.mlp.act_fn: SiLU()
llm_backbone.llm.model.layers.25.input_layernorm: LlamaRMSNorm()
llm_backbone.llm.model.layers.25.post_attention_layernorm: LlamaRMSNorm()
llm_backbone.llm.model.layers.26: LlamaDecoderLayer(
  (self_attn): LlamaSdpaAttention(
    (q_proj): Linear(in_features=4096, out_features=4096, bias=False)
    (k_proj): Linear(in_features=4096, out_features=4096, bias=False)
    (v_proj): Linear(in_features=4096, out_features=4096, bias=False)
    (o_proj): Linear(in_features=4096, out_features=4096, bias=False)
    (rotary_emb): LlamaRotaryEmbedding()
  )
  (mlp): LlamaMLP(
    (gate_proj): Linear(in_features=4096, out_features=11008, bias=False)
    (up_proj): Linear(in_features=4096, out_features=11008, bias=False)
    (down_proj): Linear(in_features=11008, out_features=4096, bias=False)
    (act_fn): SiLU()
  )
  (input_layernorm): LlamaRMSNorm()
  (post_attention_layernorm): LlamaRMSNorm()
)
llm_backbone.llm.model.layers.26.self_attn: LlamaSdpaAttention(
  (q_proj): Linear(in_features=4096, out_features=4096, bias=False)
  (k_proj): Linear(in_features=4096, out_features=4096, bias=False)
  (v_proj): Linear(in_features=4096, out_features=4096, bias=False)
  (o_proj): Linear(in_features=4096, out_features=4096, bias=False)
  (rotary_emb): LlamaRotaryEmbedding()
)
llm_backbone.llm.model.layers.26.self_attn.q_proj: Linear(in_features=4096, out_features=4096, bias=False)
llm_backbone.llm.model.layers.26.self_attn.k_proj: Linear(in_features=4096, out_features=4096, bias=False)
llm_backbone.llm.model.layers.26.self_attn.v_proj: Linear(in_features=4096, out_features=4096, bias=False)
llm_backbone.llm.model.layers.26.self_attn.o_proj: Linear(in_features=4096, out_features=4096, bias=False)
llm_backbone.llm.model.layers.26.self_attn.rotary_emb: LlamaRotaryEmbedding()
llm_backbone.llm.model.layers.26.mlp: LlamaMLP(
  (gate_proj): Linear(in_features=4096, out_features=11008, bias=False)
  (up_proj): Linear(in_features=4096, out_features=11008, bias=False)
  (down_proj): Linear(in_features=11008, out_features=4096, bias=False)
  (act_fn): SiLU()
)
llm_backbone.llm.model.layers.26.mlp.gate_proj: Linear(in_features=4096, out_features=11008, bias=False)
llm_backbone.llm.model.layers.26.mlp.up_proj: Linear(in_features=4096, out_features=11008, bias=False)
llm_backbone.llm.model.layers.26.mlp.down_proj: Linear(in_features=11008, out_features=4096, bias=False)
llm_backbone.llm.model.layers.26.mlp.act_fn: SiLU()
llm_backbone.llm.model.layers.26.input_layernorm: LlamaRMSNorm()
llm_backbone.llm.model.layers.26.post_attention_layernorm: LlamaRMSNorm()
llm_backbone.llm.model.layers.27: LlamaDecoderLayer(
  (self_attn): LlamaSdpaAttention(
    (q_proj): Linear(in_features=4096, out_features=4096, bias=False)
    (k_proj): Linear(in_features=4096, out_features=4096, bias=False)
    (v_proj): Linear(in_features=4096, out_features=4096, bias=False)
    (o_proj): Linear(in_features=4096, out_features=4096, bias=False)
    (rotary_emb): LlamaRotaryEmbedding()
  )
  (mlp): LlamaMLP(
    (gate_proj): Linear(in_features=4096, out_features=11008, bias=False)
    (up_proj): Linear(in_features=4096, out_features=11008, bias=False)
    (down_proj): Linear(in_features=11008, out_features=4096, bias=False)
    (act_fn): SiLU()
  )
  (input_layernorm): LlamaRMSNorm()
  (post_attention_layernorm): LlamaRMSNorm()
)
llm_backbone.llm.model.layers.27.self_attn: LlamaSdpaAttention(
  (q_proj): Linear(in_features=4096, out_features=4096, bias=False)
  (k_proj): Linear(in_features=4096, out_features=4096, bias=False)
  (v_proj): Linear(in_features=4096, out_features=4096, bias=False)
  (o_proj): Linear(in_features=4096, out_features=4096, bias=False)
  (rotary_emb): LlamaRotaryEmbedding()
)
llm_backbone.llm.model.layers.27.self_attn.q_proj: Linear(in_features=4096, out_features=4096, bias=False)
llm_backbone.llm.model.layers.27.self_attn.k_proj: Linear(in_features=4096, out_features=4096, bias=False)
llm_backbone.llm.model.layers.27.self_attn.v_proj: Linear(in_features=4096, out_features=4096, bias=False)
llm_backbone.llm.model.layers.27.self_attn.o_proj: Linear(in_features=4096, out_features=4096, bias=False)
llm_backbone.llm.model.layers.27.self_attn.rotary_emb: LlamaRotaryEmbedding()
llm_backbone.llm.model.layers.27.mlp: LlamaMLP(
  (gate_proj): Linear(in_features=4096, out_features=11008, bias=False)
  (up_proj): Linear(in_features=4096, out_features=11008, bias=False)
  (down_proj): Linear(in_features=11008, out_features=4096, bias=False)
  (act_fn): SiLU()
)
llm_backbone.llm.model.layers.27.mlp.gate_proj: Linear(in_features=4096, out_features=11008, bias=False)
llm_backbone.llm.model.layers.27.mlp.up_proj: Linear(in_features=4096, out_features=11008, bias=False)
llm_backbone.llm.model.layers.27.mlp.down_proj: Linear(in_features=11008, out_features=4096, bias=False)
llm_backbone.llm.model.layers.27.mlp.act_fn: SiLU()
llm_backbone.llm.model.layers.27.input_layernorm: LlamaRMSNorm()
llm_backbone.llm.model.layers.27.post_attention_layernorm: LlamaRMSNorm()
llm_backbone.llm.model.layers.28: LlamaDecoderLayer(
  (self_attn): LlamaSdpaAttention(
    (q_proj): Linear(in_features=4096, out_features=4096, bias=False)
    (k_proj): Linear(in_features=4096, out_features=4096, bias=False)
    (v_proj): Linear(in_features=4096, out_features=4096, bias=False)
    (o_proj): Linear(in_features=4096, out_features=4096, bias=False)
    (rotary_emb): LlamaRotaryEmbedding()
  )
  (mlp): LlamaMLP(
    (gate_proj): Linear(in_features=4096, out_features=11008, bias=False)
    (up_proj): Linear(in_features=4096, out_features=11008, bias=False)
    (down_proj): Linear(in_features=11008, out_features=4096, bias=False)
    (act_fn): SiLU()
  )
  (input_layernorm): LlamaRMSNorm()
  (post_attention_layernorm): LlamaRMSNorm()
)
llm_backbone.llm.model.layers.28.self_attn: LlamaSdpaAttention(
  (q_proj): Linear(in_features=4096, out_features=4096, bias=False)
  (k_proj): Linear(in_features=4096, out_features=4096, bias=False)
  (v_proj): Linear(in_features=4096, out_features=4096, bias=False)
  (o_proj): Linear(in_features=4096, out_features=4096, bias=False)
  (rotary_emb): LlamaRotaryEmbedding()
)
llm_backbone.llm.model.layers.28.self_attn.q_proj: Linear(in_features=4096, out_features=4096, bias=False)
llm_backbone.llm.model.layers.28.self_attn.k_proj: Linear(in_features=4096, out_features=4096, bias=False)
llm_backbone.llm.model.layers.28.self_attn.v_proj: Linear(in_features=4096, out_features=4096, bias=False)
llm_backbone.llm.model.layers.28.self_attn.o_proj: Linear(in_features=4096, out_features=4096, bias=False)
llm_backbone.llm.model.layers.28.self_attn.rotary_emb: LlamaRotaryEmbedding()
llm_backbone.llm.model.layers.28.mlp: LlamaMLP(
  (gate_proj): Linear(in_features=4096, out_features=11008, bias=False)
  (up_proj): Linear(in_features=4096, out_features=11008, bias=False)
  (down_proj): Linear(in_features=11008, out_features=4096, bias=False)
  (act_fn): SiLU()
)
llm_backbone.llm.model.layers.28.mlp.gate_proj: Linear(in_features=4096, out_features=11008, bias=False)
llm_backbone.llm.model.layers.28.mlp.up_proj: Linear(in_features=4096, out_features=11008, bias=False)
llm_backbone.llm.model.layers.28.mlp.down_proj: Linear(in_features=11008, out_features=4096, bias=False)
llm_backbone.llm.model.layers.28.mlp.act_fn: SiLU()
llm_backbone.llm.model.layers.28.input_layernorm: LlamaRMSNorm()
llm_backbone.llm.model.layers.28.post_attention_layernorm: LlamaRMSNorm()
llm_backbone.llm.model.layers.29: LlamaDecoderLayer(
  (self_attn): LlamaSdpaAttention(
    (q_proj): Linear(in_features=4096, out_features=4096, bias=False)
    (k_proj): Linear(in_features=4096, out_features=4096, bias=False)
    (v_proj): Linear(in_features=4096, out_features=4096, bias=False)
    (o_proj): Linear(in_features=4096, out_features=4096, bias=False)
    (rotary_emb): LlamaRotaryEmbedding()
  )
  (mlp): LlamaMLP(
    (gate_proj): Linear(in_features=4096, out_features=11008, bias=False)
    (up_proj): Linear(in_features=4096, out_features=11008, bias=False)
    (down_proj): Linear(in_features=11008, out_features=4096, bias=False)
    (act_fn): SiLU()
  )
  (input_layernorm): LlamaRMSNorm()
  (post_attention_layernorm): LlamaRMSNorm()
)
llm_backbone.llm.model.layers.29.self_attn: LlamaSdpaAttention(
  (q_proj): Linear(in_features=4096, out_features=4096, bias=False)
  (k_proj): Linear(in_features=4096, out_features=4096, bias=False)
  (v_proj): Linear(in_features=4096, out_features=4096, bias=False)
  (o_proj): Linear(in_features=4096, out_features=4096, bias=False)
  (rotary_emb): LlamaRotaryEmbedding()
)
llm_backbone.llm.model.layers.29.self_attn.q_proj: Linear(in_features=4096, out_features=4096, bias=False)
llm_backbone.llm.model.layers.29.self_attn.k_proj: Linear(in_features=4096, out_features=4096, bias=False)
llm_backbone.llm.model.layers.29.self_attn.v_proj: Linear(in_features=4096, out_features=4096, bias=False)
llm_backbone.llm.model.layers.29.self_attn.o_proj: Linear(in_features=4096, out_features=4096, bias=False)
llm_backbone.llm.model.layers.29.self_attn.rotary_emb: LlamaRotaryEmbedding()
llm_backbone.llm.model.layers.29.mlp: LlamaMLP(
  (gate_proj): Linear(in_features=4096, out_features=11008, bias=False)
  (up_proj): Linear(in_features=4096, out_features=11008, bias=False)
  (down_proj): Linear(in_features=11008, out_features=4096, bias=False)
  (act_fn): SiLU()
)
llm_backbone.llm.model.layers.29.mlp.gate_proj: Linear(in_features=4096, out_features=11008, bias=False)
llm_backbone.llm.model.layers.29.mlp.up_proj: Linear(in_features=4096, out_features=11008, bias=False)
llm_backbone.llm.model.layers.29.mlp.down_proj: Linear(in_features=11008, out_features=4096, bias=False)
llm_backbone.llm.model.layers.29.mlp.act_fn: SiLU()
llm_backbone.llm.model.layers.29.input_layernorm: LlamaRMSNorm()
llm_backbone.llm.model.layers.29.post_attention_layernorm: LlamaRMSNorm()
llm_backbone.llm.model.layers.30: LlamaDecoderLayer(
  (self_attn): LlamaSdpaAttention(
    (q_proj): Linear(in_features=4096, out_features=4096, bias=False)
    (k_proj): Linear(in_features=4096, out_features=4096, bias=False)
    (v_proj): Linear(in_features=4096, out_features=4096, bias=False)
    (o_proj): Linear(in_features=4096, out_features=4096, bias=False)
    (rotary_emb): LlamaRotaryEmbedding()
  )
  (mlp): LlamaMLP(
    (gate_proj): Linear(in_features=4096, out_features=11008, bias=False)
    (up_proj): Linear(in_features=4096, out_features=11008, bias=False)
    (down_proj): Linear(in_features=11008, out_features=4096, bias=False)
    (act_fn): SiLU()
  )
  (input_layernorm): LlamaRMSNorm()
  (post_attention_layernorm): LlamaRMSNorm()
)
llm_backbone.llm.model.layers.30.self_attn: LlamaSdpaAttention(
  (q_proj): Linear(in_features=4096, out_features=4096, bias=False)
  (k_proj): Linear(in_features=4096, out_features=4096, bias=False)
  (v_proj): Linear(in_features=4096, out_features=4096, bias=False)
  (o_proj): Linear(in_features=4096, out_features=4096, bias=False)
  (rotary_emb): LlamaRotaryEmbedding()
)
llm_backbone.llm.model.layers.30.self_attn.q_proj: Linear(in_features=4096, out_features=4096, bias=False)
llm_backbone.llm.model.layers.30.self_attn.k_proj: Linear(in_features=4096, out_features=4096, bias=False)
llm_backbone.llm.model.layers.30.self_attn.v_proj: Linear(in_features=4096, out_features=4096, bias=False)
llm_backbone.llm.model.layers.30.self_attn.o_proj: Linear(in_features=4096, out_features=4096, bias=False)
llm_backbone.llm.model.layers.30.self_attn.rotary_emb: LlamaRotaryEmbedding()
llm_backbone.llm.model.layers.30.mlp: LlamaMLP(
  (gate_proj): Linear(in_features=4096, out_features=11008, bias=False)
  (up_proj): Linear(in_features=4096, out_features=11008, bias=False)
  (down_proj): Linear(in_features=11008, out_features=4096, bias=False)
  (act_fn): SiLU()
)
llm_backbone.llm.model.layers.30.mlp.gate_proj: Linear(in_features=4096, out_features=11008, bias=False)
llm_backbone.llm.model.layers.30.mlp.up_proj: Linear(in_features=4096, out_features=11008, bias=False)
llm_backbone.llm.model.layers.30.mlp.down_proj: Linear(in_features=11008, out_features=4096, bias=False)
llm_backbone.llm.model.layers.30.mlp.act_fn: SiLU()
llm_backbone.llm.model.layers.30.input_layernorm: LlamaRMSNorm()
llm_backbone.llm.model.layers.30.post_attention_layernorm: LlamaRMSNorm()
llm_backbone.llm.model.layers.31: LlamaDecoderLayer(
  (self_attn): LlamaSdpaAttention(
    (q_proj): Linear(in_features=4096, out_features=4096, bias=False)
    (k_proj): Linear(in_features=4096, out_features=4096, bias=False)
    (v_proj): Linear(in_features=4096, out_features=4096, bias=False)
    (o_proj): Linear(in_features=4096, out_features=4096, bias=False)
    (rotary_emb): LlamaRotaryEmbedding()
  )
  (mlp): LlamaMLP(
    (gate_proj): Linear(in_features=4096, out_features=11008, bias=False)
    (up_proj): Linear(in_features=4096, out_features=11008, bias=False)
    (down_proj): Linear(in_features=11008, out_features=4096, bias=False)
    (act_fn): SiLU()
  )
  (input_layernorm): LlamaRMSNorm()
  (post_attention_layernorm): LlamaRMSNorm()
)
llm_backbone.llm.model.layers.31.self_attn: LlamaSdpaAttention(
  (q_proj): Linear(in_features=4096, out_features=4096, bias=False)
  (k_proj): Linear(in_features=4096, out_features=4096, bias=False)
  (v_proj): Linear(in_features=4096, out_features=4096, bias=False)
  (o_proj): Linear(in_features=4096, out_features=4096, bias=False)
  (rotary_emb): LlamaRotaryEmbedding()
)
llm_backbone.llm.model.layers.31.self_attn.q_proj: Linear(in_features=4096, out_features=4096, bias=False)
llm_backbone.llm.model.layers.31.self_attn.k_proj: Linear(in_features=4096, out_features=4096, bias=False)
llm_backbone.llm.model.layers.31.self_attn.v_proj: Linear(in_features=4096, out_features=4096, bias=False)
llm_backbone.llm.model.layers.31.self_attn.o_proj: Linear(in_features=4096, out_features=4096, bias=False)
llm_backbone.llm.model.layers.31.self_attn.rotary_emb: LlamaRotaryEmbedding()
llm_backbone.llm.model.layers.31.mlp: LlamaMLP(
  (gate_proj): Linear(in_features=4096, out_features=11008, bias=False)
  (up_proj): Linear(in_features=4096, out_features=11008, bias=False)
  (down_proj): Linear(in_features=11008, out_features=4096, bias=False)
  (act_fn): SiLU()
)
llm_backbone.llm.model.layers.31.mlp.gate_proj: Linear(in_features=4096, out_features=11008, bias=False)
llm_backbone.llm.model.layers.31.mlp.up_proj: Linear(in_features=4096, out_features=11008, bias=False)
llm_backbone.llm.model.layers.31.mlp.down_proj: Linear(in_features=11008, out_features=4096, bias=False)
llm_backbone.llm.model.layers.31.mlp.act_fn: SiLU()
llm_backbone.llm.model.layers.31.input_layernorm: LlamaRMSNorm()
llm_backbone.llm.model.layers.31.post_attention_layernorm: LlamaRMSNorm()
llm_backbone.llm.model.norm: LlamaRMSNorm()
llm_backbone.llm.lm_head: Linear(in_features=4096, out_features=32064, bias=False)
projector: FusedMLPProjector(
  (projector): Sequential(
    (0): Linear(in_features=2176, out_features=8704, bias=True)
    (1): GELU(approximate='none')
    (2): Linear(in_features=8704, out_features=4096, bias=True)
    (3): GELU(approximate='none')
    (4): Linear(in_features=4096, out_features=4096, bias=True)
  )
)
projector.projector: Sequential(
  (0): Linear(in_features=2176, out_features=8704, bias=True)
  (1): GELU(approximate='none')
  (2): Linear(in_features=8704, out_features=4096, bias=True)
  (3): GELU(approximate='none')
  (4): Linear(in_features=4096, out_features=4096, bias=True)
)
projector.projector.0: Linear(in_features=2176, out_features=8704, bias=True)
projector.projector.1: GELU(approximate='none')
projector.projector.2: Linear(in_features=8704, out_features=4096, bias=True)
projector.projector.3: GELU(approximate='none')
projector.projector.4: Linear(in_features=4096, out_features=4096, bias=True)
